model/trained_model/model.pt (torch, 46836 bytes, 6 tensors)

fc1.weight f4 [100, 6]
-0.12839812 -0.10147885 -0.1069767 -0.120305315 0.30491313 -0.033919923 0.3120608 -0.21224031
-0.26527733 0.38963202 0.033130042 0.1435007 -0.2441314 -0.027162354 -0.34132746 -0.29830113
-0.09103437 0.1319717 -0.36331892 -0.2651415 0.07679981 0.39821523 -0.25084463 -0.028885677
-0.34757742 0.13174857 0.020204749 0.26725623 -0.3455189 0.19837521 0.20245618 0.33540294
-0.20158026 -0.046207678 0.23468612 0.18850939 0.045928895 0.3667869 -0.2533607 0.33391982
-0.15333298 -0.22635995 0.06658897 -0.2133577 -0.1331723 0.31273666 -0.030080419 -0.2203068
0.083270624 0.31361854 -0.11334882 -0.34102082 -0.22897646 0.33973464 0.24266684 0.3718419
0.3825707 0.07298041 -0.043983646 -0.32816413 -0.36616373 -0.03978546 -0.23531857 -0.06668025
0.20560056 0.030104963 0.38710034 -0.32529348 0.37375572 -0.40804693 -0.21616241 -0.31277925
0.3130498 0.26192015 0.3596905 -0.26366696 0.18892036 0.24583392 0.15043187 0.2575406
0.23662008 -0.15672356 0.2741591 0.2527068 0.35146868 -0.060190745 0.25490275 -0.12177911
-0.022343894 -0.19223742 -0.2503155 0.17527921 -0.3717369 0.2562751 -0.33837658 0.2367297
-0.39766955 0.3799258 -0.0670254 0.12101498 0.33112568 -0.03938328 0.2625274 0.34273773
0.13971038 0.3454542 -0.3567944 -0.26263693 -0.17034207 -0.34118924 0.12561072 -0.2532753
0.4078054 -0.030749174 0.21338318 -0.095390305 0.33583847 0.17161815 -0.04894607 -0.111993805
-0.02950465 0.15264766 -0.21521465 0.14629146 -0.29639077 0.014513248 -0.26799423 -0.23688723
-0.10217576 -0.2806498 -0.19755955 0.3001499 0.23751056 0.39735213 0.4384177 0.16317116
-0.08562895 -0.26882422 -0.25965935 0.31047237 0.32229704 0.1915032 -0.116312705 -0.41086867
0.3690169 -0.14632626 0.3966817 -0.39821482 -0.23737423 -0.23632354 -0.34416974 0.37823242
-0.10780613 -0.23264349 -0.3015021 -0.017732557 0.2510716 -0.1836201 -0.30237225 0.3365443
-0.3494004 0.080955364 0.36434466 -0.20144126 -0.091515295 -0.14732948 -0.23795964 0.027327217
-0.013775471 -0.04510326 -0.03014856 -0.013362165 -0.38918668 0.23286225 -0.25134942 0.082982965
-0.33596027 0.09278736 0.047259152 0.109978735 0.07252238 0.24858041 0.4012083 -0.38698265
0.1929492 -0.099501304 -0.16413657 0.44365954 -0.32414728 0.37246075 0.12981962 -0.43524772
-0.01092023 -0.24699983 0.42482084 -0.3223582 0.17333004 -0.28370523 -0.053554468 -0.34883276
0.29859346 0.11996496 -0.17800601 0.016744763 0.22478093 0.20138139 0.3684954 -0.0014764075
0.4025229 0.27335477 0.070646085 0.07372191 -0.35485056 0.19123548 0.21435484 0.27186105
0.113564745 0.011115973 0.17443164 0.02038176 0.07967216 -0.13832933 -0.120700374 -0.3008698
0.04512741 -0.1540968 -0.14750847 0.20276198 -0.19205958 -0.17383267 0.10998639 0.37198007
-0.11004743 -0.13433199 0.31365576 -0.3350986 -0.117888466 0.21390381 0.2561742 -0.14510947
0.07927934 0.35100192 -0.08523813 -0.32782978 0.29652777 0.19606377 -0.067664124 0.27953702
0.08568916 0.26858047 -0.0671537 -0.18694164 0.24537475 0.102106 -0.26731098 -0.29021245
00000000: cc7a 03be 25d4 cfbd 9a16 dbbd a262 f6bd
00000010: 931d 9c3e 9eef 0abd 6fc6 9f3e 8655 59be
00000020: 6ed2 87be d97d c73e 5eb3 073d d9f1 123e
00000030: 95fd 79be 9683 debc 79c2 aebe edba 98be
00000040: 3a70 babd 9723 073e f004 babe a0c0 87be
00000050: 3849 9d3d dee2 cb3e b56e 80be a8a1 ecbc
00000060: abf5 b1be 19e9 063e 6e84 a53c cfd5 883e
00000070: dae7 b0be df22 4b3e ac50 4f3e efb9 ab3e
00000080: 0e6b 4ebe 4344 3dbd 8f51 703e 9b08 413e
00000090: f01f 3c3d 7ecb bb3e 7eb8 81be 8af7 aa3e
000000a0: 5203 1dbe e7ca 67be cc5f 883d 717a 5abe
000000b0: 525e 08be 051f a03e 366b f6bc 1b98 61be
000000c0: ca89 aa3d 9c92 a03e 6d23 e8bd 489a aebe
000000d0: ce78 6abe b3f1 ad3e a87d 783e 1062 be3e
000000e0: 4fe0 c33e c176 953d 3228 34bd 2105 a8be
000000f0: d079 bbbe 14f6 22bd 5af7 70be a88f 88bd
00000100: f488 523e af9e f63c 0432 c63e de8c a6be
00000110: e95c bf3e 87eb d0be ae59 5dbe 9a24 a0be
00000120: 1048 a03e 661a 863e 5a29 b83e 5bff 86be
00000130: 5774 413e e3bb 7b3e d00a 1a3e 5ddc 833e
00000140: 894c 723e 247c 20be 955e 8c3e c962 813e
00000150: b4f3 b33e 928a 76bd 9d82 823e 5367 f9bd
00000160: 8b0a b7bc e3d9 44be 5a29 80be 657c 333e
00000170: 4d54 bebe 7d36 833e b23f adbe 4569 723e
00000180: 589b cbbe a285 c23e 9d44 89bd b4d6 f73d
00000190: 4e89 a93e 5d50 21bd fe69 863e 527b af3e
000001a0: 3d10 0f3e 5fdf b03e c1ad b6be 5978 86be
000001b0: 276e 2ebe 5bb0 aebe 19a0 003e 4dad 81be
000001c0: dfcb d03e b1e5 fbbc 1f81 5a3e fe5b c3bd
000001d0: 05f3 ab3e abbc 2f3e ad7b 48bd 025d e5bd
000001e0: bcb3 f1bc ab4f 1c3e 3b61 5cbe 6ecd 153e
000001f0: 88c0 97be f9c8 6d3c 8a36 89be 9192 72be
00000200: 8641 d1bd 55b1 8fbe 0d4d 4abe 3fad 993e
00000210: f835 733e bd71 cb3e 4978 e03e 5716 273e
00000220: 3b5e afbd 54a3 89be 12f2 84be 3cf6 9e3e
00000230: 1e04 a53e 6a19 443e 5b35 eebd 615d d2be
00000240: c8ef bc3e 8dd6 15be dd19 cb3e d0e2 cbbe
00000250: 3b12 73be ccfe 71be 0437 b0be aea7 c13e
00000260: 76c9 dcbd 183a 6ebe 7c5e 9abe de43 91bc
00000270: 758c 803e e806 3cbe 89d0 9abe 894f ac3e
00000280: 9ce4 b2be edcb a53d 628b ba3e 9e46 4ebe
00000290: 5f6c bbbd 8add 16be b1ab 73be 54dd df3c
000002a0: 83b2 61bc 32be 38bd 1dfa f6bc fbec 5abc
000002b0: 7a43 c7be 7173 6e3e dfb0 80be f9f2 a93d
000002c0: fc02 acbe 4d07 be3d d092 413d 883c e13d
000002d0: 9d86 943d dd8b 7e3e 2d6b cd3e 9722 c6be
000002e0: 7a94 453e 57c7 cbbd 6b13 28be 5827 e33e
000002f0: a2f6 a5be 2db3 be3e 6fef 043e cad8 debe
00000300: c4ea 32bc 86ed 7cbe 1e82 d93e 220c a5be
00000310: 6e7d 313e d041 91be ee5b 5bbd 359a b2be
00000320: 3ee1 983e 30b0 f53d 3547 36be 502c 893c
00000330: f92c 663e ec36 4e3e 6eab bc3e 0484 c1ba
00000340: 7b17 ce3e 28f5 8b3e e5ae 903d 83fb 963d
00000350: f9ae b5be 3cd3 433e d67f 5b3e 5f31 8b3e
00000360: a294 e83d c51f 363c 359e 323e a6f7 a63c
00000370: 282b a33d 34a6 0dbe c231 f7bd 9b0b 9abe
00000380: 85d7 383d 8dcb 1dbe 760c 17be d6a0 4f3e
00000390: 44ab 44be 3101 32be 8b40 e13d 2c74 be3e
000003a0: 8c60 e1bd 538e 09be 7d97 a03e 0b92 abbe
000003b0: 826f f1bd 9a09 5b3e 4429 833e 9497 14be
000003c0: 355d a23d 86b6 b33e 5491 aebd 4ed9 a7be
000003d0: 7dd2 973e f1c4 483e 7d93 8abd 7a1f 8f3e
000003e0: cc7d af3d 6183 893e e187 89bd a16d 3fbe
000003f0: 8543 7b3e f31c d13d fcdc 88be ba96 94be

fc1.bias f4 [100]
-0.042976975 -0.30100784 0.36466837 -0.17949872 0.01756197 0.31870556 -0.01048489 0.4038671
-0.20873024 -0.1110266 -0.2908987 -0.34906268 0.11007409 -0.043663986 -0.18451108 0.3968587
0.40860662 0.2831273 -0.30909795 0.34561086 0.119867995 -0.17581739 -0.13702889 0.2781712
-0.16204907 0.21277367 0.073059015 0.118363634 -0.062012017 -0.26962876 -0.12154849 -0.1294815
0.35262176 -0.044474076 -0.13583863 0.34300625 0.043226264 -0.34893066 0.32157058 -0.227819
-0.3039679 -0.15980053 -0.4088685 -0.20209426 0.0886019 0.21854734 -0.14121856 0.25221643
-0.19961542 0.2580284 0.0834338 -0.207796 0.27839816 -0.022577798 0.05451475 0.13845947
0.26061282 0.265221 0.07395371 0.19216232 0.2699659 0.20143221 0.3707563 -0.30748415
0.08381738 0.052826155 0.18496495 -0.2966116 -0.32271448 0.1839818 -0.051270667 -0.36288744
-0.17111129 -0.008878511 -0.017244808 0.36249796 -0.067030564 -0.025202084 0.268019 -0.35034043
-0.25336415 0.18971758 -0.2586049 -0.030400755 0.31459135 0.13212642 0.27795473 -0.20709434
-0.2991568 0.0046553398 -0.3980975 0.11612482 -0.13484822 -0.123657174 -0.20288453 -0.117750265
-0.07770638 0.13232015 -0.1963881 -0.29445547
00000000: a008 30bd b31d 9abe d0b5 ba3e 83ce 37be
00000010: 1fde 8f3c 602d a33e d1c8 2bbc abc7 ce3e
00000020: 61bd 55be ea61 e3bd adf0 94be 58b8 b2be
00000030: 866e e13d 02d9 32bd 79f0 3cbe 1031 cb3e
00000040: e334 d13e 10f6 903e 1642 9ebe e8f3 b03e
00000050: 5a7d f53d 7909 34be 4d51 0cbe 756c 8e3e
00000060: 31f0 25be 57e1 593e f79f 953d a268 f23d
00000070: 5000 7ebd c80c 8abe 6aee f8bd cc96 04be
00000080: d78a b43e 732a 36bd 4819 0bbe 849e af3e
00000090: 060e 313d 0aa7 b2be e6a4 a43e 6249 69be
000000a0: aea1 9bbe c0a2 23be 3657 d1be ccf1 4ebe
000000b0: ea74 b53d e0ca 5f3e 999b 10be 8322 813e
000000c0: fc67 4cbe 4c1c 843e 57df aa3d 7ac8 54be
000000d0: 348a 8e3e 13f5 b8bc dc4a 5f3d 52c8 0d3e
000000e0: 0b6f 853e 0ccb 873e 0b75 973d 33c6 443e
000000f0: f838 8a3e 3f44 4e3e c5d3 bd3e 906e 9dbe
00000100: 72a8 ab3d 3d60 583d 7467 3d3e 7add 97be
00000110: d53a a5be ba65 3c3e 3101 52bd 62cc b9be
00000120: cc37 2fbe 2d77 11bc fc44 8dbc 5599 b93e
00000130: 5247 89bd 9a74 cebc c939 893e d25f b3be
00000140: f2b8 81be 5345 423e dd67 84be 010b f9bc
00000150: 1e12 a13e 264c 073e 1550 8e3e 8a10 54be
00000160: 152b 99be d28b 983b 6fd3 cbbe dad2 ed3d
00000170: a715 0abe f93f fdbd f6c0 4fbe 0d27 f1bd
00000180: 8624 9fbd ef7e 073e f619 49be dec2 96be

fc2.weight f4 [100, 100]
-0.075813845 -0.098180704 -0.0068196068 0.028365767 0.045005567 -0.08629824 0.05474687 -0.08423372
0.08248772 -0.08664924 0.00846473 0.04485447 0.071835056 0.097507074 0.08338779 -0.0710402
-0.08611323 -0.047436245 -0.002226162 0.040394034 -0.09440587 0.041436385 0.02767118 -0.023070352
0.08022692 -0.035365745 0.0069214627 0.051390592 0.0018296798 -0.086687446 -0.007685192 0.030103112
-0.09998254 -0.005075035 0.04382075 -0.08092329 0.046801925 0.018528784 0.07055882 -0.06983419
0.089341305 0.08663557 0.053457964 0.09621018 -0.09225138 -0.053210415 0.084692396 0.09906576
-0.045494296 0.038059127 0.09589707 0.012561108 -0.04832107 -0.07507705 -0.008210929 -0.06990895
-0.08134097 0.010887668 0.0370979 -0.09434054 -0.037409663 0.054347396 -0.096809685 -0.09824214
-0.061437804 0.09241521 -0.051873773 0.08977929 -0.09602257 0.07994769 -0.033836555 0.06609316
-0.087077 0.05578078 0.00035530716 0.02686608 -0.008261627 -0.042095672 0.07119937 0.034754794
-0.056524277 -0.0013143809 -0.0011846543 -0.06372271 0.033440027 0.07279686 0.084621996 -0.06655436
-0.030420387 -0.0922392 0.07211005 -0.08674817 -0.07613873 -0.033539344 -0.015086162 0.08191648
-0.081405945 -0.041924886 0.020941138 0.07562049 -0.011053213 0.017907431 -0.092305884 0.026356958
0.009225621 0.02951001 0.048198774 -0.06068801 -0.044164192 -0.011584679 0.07989981 0.088150464
0.08511812 -0.017468337 0.014917841 -0.061408672 -0.0038736442 0.072760046 0.021362582 -0.0670746
-0.07768264 -0.03825373 -0.008845983 0.033907566 0.028841976 -0.010121438 -0.05645156 -0.065592
0.027154878 0.036123898 -0.035649754 -0.03435437 0.06620012 -0.0731782 0.0659065 0.0625558
-0.063801415 -0.045486655 0.05882612 -0.04958979 0.0672134 -0.10735867 0.029761001 0.089609906
0.08867372 0.05856738 0.010377306 -0.020712625 0.14733839 0.038933914 -0.010767334 -0.03515187
-0.01072943 -0.057638187 -0.015068037 0.03534647 0.03270768 -0.042211197 -0.003229464 0.058306213
-0.042220443 0.06515854 -0.05786697 0.07286771 -0.023369996 -0.06827052 0.006763093 0.060868
-0.059249043 0.012501884 0.04314465 -0.053612992 -0.07650747 -0.07088516 -0.042577963 0.0052917367
0.071378686 0.093497545 -0.06587081 -0.046596132 -0.13405511 0.09442934 0.19523822 0.09521126
0.08602618 -0.055487014 -0.012134351 -0.054625176 -0.024358809 0.072390966 0.020936454 -0.05738626
0.114150934 -0.09821061 -0.009425498 0.0820935 -0.034610424 0.10081285 -0.064043716 0.17115507
0.047831155 0.064205796 -0.073293805 0.002881433 0.012003621 0.019636473 -0.059500184 0.08517129
0.01016126 -0.056981433 0.031009639 0.09738749 0.010200151 -0.08113925 0.04358904 0.09422464
-0.020632813 -0.07262968 -0.056597497 -0.03662062 0.077752486 -0.027591178 0.038541544 -0.042231206
0.059786692 0.08246952 -0.002596072 -0.0207413 0.070168845 0.07517152 -0.0426561 -0.02748131
0.0945678 -0.016011603 0.030154558 -0.004721957 -0.0028270995 0.07013837 0.046549466 0.04606428
0.06611844 0.038440008 0.05241329 0.098060295 0.06906046 0.043792736 0.02408351 -0.049502145
-0.07332365 0.010107174 0.051305726 -0.076006316 0.074777536 -0.10126764 0.08589439 -0.037729315
00000000: 4a44 9bbd f712 c9bd 0277 dfbb 535f e83c
00000010: c257 383d 22bd b0bd 413e 603d bb82 acbd
00000020: 52ef a83d 2875 b1bd a7af 0a3c 52b9 373d
00000030: 421e 933d cab1 c73d 38c7 aa3d 867d 91bd
00000040: 225c b0bd 824c 42bd cde4 11bb 3774 253d
00000050: dd57 c1bd 33b9 293d acae e23c 09fe bcbc
00000060: 034e a43d acdb 10bd 70cd e23b f17e 523d
00000070: ded1 ef3a 3089 b1bd 10d4 fbbb cd9a f63c
00000080: a5c3 ccbd 7b4c a6bb 637d 333d 1cbb a5bd
00000090: 60b3 3f3d adc9 973c 2581 903d 3a05 8fbd
000000a0: 93f8 b63d fd6d b13d bdf6 5a3d d809 c53d
000000b0: 4bee bcbd 2af3 59bd 3573 ad3d fde2 ca3d
000000c0: 3a58 3abd e3e3 1b3d af65 c43d 1bcd 4d3c
000000d0: 50ec 45bd ffc1 99bd 2287 06bc 6c2c 8fbd
000000e0: 1896 a6bd 3062 323c f8f3 173d 9d35 c1bd
000000f0: e03a 19bd 609b 5e3d 2844 c6bd 2d33 c9bd
00000100: 35a6 7bbd 3044 bd3d 9879 54bd 34de b73d
00000110: 7ba7 c4bd 9dbb a33d 3398 0abd da5b 873d
00000120: 6d55 b2bd 637a 643d 8548 ba39 4116 dc3c
00000130: c65b 07bc 836c 2cbd fad0 913d 0b5b 0e3d
00000140: 0086 67bd 4e47 acba 6746 9bba 0d81 82bd
00000150: 69f8 083d 8516 953d 4c4e ad3d a74d 88bd
00000160: 2d34 f9bc e8e7 bcbd 6fae 933d 06a9 b1bd
00000170: 9fee 9bbd 8d60 09bd f32b 77bc d4c3 a73d
00000180: 29b8 a6bd 6eb9 2bbd c08c ab3c eade 9a3d
00000190: 8918 35bc 9bb2 923c de0a bdbd 8cea d73c
000001a0: 0f27 173c fabe f13c 146c 453d fe93 78bd
000001b0: 83e5 34bd aacd 3dbc 83a2 a33d 3b88 b43d
000001c0: 6952 ae3d c219 8fbc f669 743c a987 7bbd
000001d0: f7dc 7dbb 3803 953d 9500 af3c 685e 89bd
000001e0: 1318 9fbd f1af 1cbd beee 10bc a9e2 0a3d
000001f0: 0246 ec3c 63d4 25bc c039 67bd 1955 86bd
00000200: e873 de3c a7f6 133d 7a05 12bd 2bb7 0cbd
00000210: ee93 873d 74de 95bd fdf9 863d 411d 803d
00000220: 51aa 82bd 3750 3abd a8f3 703d aa1e 4bbd
00000230: 2ea7 893d ddde dbbd 58cd f33c 6685 b73d
00000240: 919a b53d 59e4 6f3d 9305 2a3c 86ad a9bc
00000250: e0df 163e 2b79 1f3d 7969 30bc 68fb 0fbd
00000260: 7eca 2fbc 0516 6cbd eedf 76bc 76c7 103d
00000270: 7df8 053d a6e5 2cbd 6aa5 53bb 7fd2 6e3d
00000280: 58ef 2cbd d771 853d ea05 6dbd aa3b 953d
00000290: 6f72 bfbc 6ad1 8bbd f09c dd3b b950 793d
000002a0: 20af 72bd b4d4 4c3c 72b8 303d 4c99 5bbd
000002b0: f3af 9cbd 3d2c 91bd 3b66 2ebd 4e66 ad3b
000002c0: fd2e 923d a47b bf3d 46e7 86bd 96db 3ebd
000002d0: be45 09be 2b64 c13d 87ec 473e 1ffe c23d
000002e0: 7e2e b03d 5a46 63bd 28cf 46bc a6be 5fbd
000002f0: 208c c7bc b741 943d ed82 ab3c db0d 6bbd
00000300: f7c7 e93d a522 c9bd 676d 1abc a320 a83d
00000310: a9c3 0dbd f876 ce3d 5a29 83bd 4643 2f3e
00000320: 9aea 433d 547e 833d 101b 96bd 6dd6 3c3b
00000330: d6aa 443c abdc a03c 77b6 73bd 496e ae3d
00000340: 6a7b 263c 5d65 69bd ed07 fe3c 1873 c73d
00000350: 891e 273c 562c a6bd 6c8a 323d d9f8 c03d
00000360: 2506 a9bc dfbe 94bd c7d2 67bd 81ff 15bd
00000370: b23c 9f3d e506 e2bc bddd 1d3d a1fa 2cbd
00000380: e4e2 743d c8e5 a83d dc22 2abb a9e9 a9bc
00000390: afb4 8f3d 87f3 993d 2ab8 2ebd 7c20 e1bc
000003a0: c3ac c13d c42a 83bc b106 f73c a5ba 9abb
000003b0: dc46 39bb b5a4 8f3d a7aa 3e3d e6ad 3c3d
000003c0: 1b69 873d 4573 1d3d 51af 563d d6d3 c83d
000003d0: 926f 8d3d 0360 333d c84a c53c c3c2 4abd
000003e0: b62a 96bd 8f98 253c f425 523d 33a9 9bbd
000003f0: f724 993d 6965 cfbd 66e9 af3d 0e8a 1abd

fc2.bias f4 [100]
-0.010451796 -0.011426552 0.021979177 0.00091565546 0.04768816 -0.04914854 -0.088290945 0.085692905
-0.04062904 0.0028431446 0.06674895 0.08673995 -0.07306283 0.08332815 0.028270707 -0.005281153
-0.011673242 -0.07623356 -0.0518064 0.03942096 -0.085306756 0.07209689 -0.07103399 0.049921192
0.082220234 -0.08424629 0.09915639 0.008289602 -0.009219764 0.062391516 -0.08224676 -0.01804141
0.00016579358 0.03297762 0.048927274 -0.029016115 -0.038426887 0.071331605 -0.08833208 -0.026743034
-0.06346613 -0.016339019 -0.07648521 -0.004655129 -0.09631691 0.021107769 0.04358446 0.060416743
0.09239575 -0.050584722 -0.07754711 0.055418614 -0.06439902 0.026808444 -0.032082055 0.067735314
-0.031404275 0.07270079 -0.049686067 0.07227827 -0.06277797 0.007918462 -0.026860738 0.076785
-0.018574798 0.01360524 -0.08758464 0.0053733625 -0.039150435 -0.0036837575 0.0058439164 0.019991424
0.09377189 0.09337188 -0.09518272 0.013109612 0.059778225 -0.022265103 0.07324997 0.004377743
0.0006747153 -0.021220852 -0.037856437 0.040324643 0.10124899 0.07734139 -0.0005195049 0.070496365
-0.010956955 -0.017667485 -0.08899585 -0.03637931 0.04674381 -0.04435331 -0.0802181 0.08975015
0.04221759 -0.047967948 0.050718762 0.0043358873
00000000: 033e 2bbc 6f36 3bbc ad0d b43c 9908 703a
00000010: a954 433d fb4f 49bd e2d1 b4bd c37f af3d
00000020: a36a 26bd 0d54 3a3b acb3 883d b7a4 b13d
00000030: f7a1 95bd f3a7 aa3d f897 e73c 860d adbb
00000040: 2041 3fbc 5720 9cbd f332 54bd df77 213d
00000050: 4fb5 aebd 89a7 933d 457a 91bd 2a7a 4c3d
00000060: 1563 a83d 5289 acbd 8112 cb3d 1cd1 073c
00000070: 7e0e 17bc 3f8e 7f3d fd70 a8bd 94cb 93bc
00000080: e0d8 2d39 8a13 073d f767 483d 34b3 edbc
00000090: 8365 1dbd 4e16 923d 73e7 b4bd 3514 dbbc
000000a0: 88fa 81bd 68d9 85bc 47a4 9cbd 0d8a 98bb
000000b0: cd41 c5bd 33ea ac3c 9e85 323d 8c77 773d
000000c0: fc39 bd3d ed31 4fbd 05d1 9ebd a1fe 623d
000000d0: a2e3 83bd 629d db3c 7968 03bd d0b8 8a3d
000000e0: c5a1 00bd 27e4 943d 9e83 4bbd a106 943d
000000f0: bd91 80bd 70bc 013c 0d0b dcbc 7441 9d3d
00000100: 2d2a 98bc 83e8 5e3c 935f b3bd 0813 b03b
00000110: 355c 20bd 326b 71bb 537e bf3b 0ec5 a33c
00000120: 7a0b c03d c239 bf3d 28ef c2bd b3c9 563c
00000130: 03da 743d 4e65 b6bc 1504 963d 2c73 8f3b
00000140: 61df 303a 5ad7 adbc 5a0f 1bbd 742b 253d
00000150: a15b cf3d 2a65 9e3d 622f 08ba 6660 903d
00000160: cd84 33bc 67bb 90bc 7543 b6bd 7902 15bd
00000170: 7076 3f3d d1ab 35bd 6349 a4bd edce b73d
00000180: 5aec 2c3d 0a7a 44bd 7abe 4f3d 0f14 8e3b

fc3.weight f4 [3, 100]
-0.06262605 0.015778685 0.08482176 -0.05878296 -0.00142015 0.009182204 0.01809625 0.03513973
0.047882188 -0.038418315 0.025364777 0.069271564 0.0007480682 -0.11187187 0.03639438 -0.0839299
0.045315165 0.041779377 -0.08516206 -0.052374944 -0.08725884 -0.088330455 0.046715118 0.054466084
-0.0054682083 -0.09253607 -0.020427916 -0.019681139 0.0897736 0.03600535 -0.041586876 -0.05255265
-0.07380103 -0.08996679 -0.049063902 0.08720575 -0.08741542 -0.029409003 -0.06235489 -0.0822938
0.093376 0.06514191 0.103910945 0.08077924 0.099092446 0.056313943 -0.095467 0.045142487
-0.07563507 0.029714955 0.015741004 -0.01804515 0.102473 -0.022238428 -0.0650524 -0.010144363
-0.037454437 -0.08530954 -0.09135491 -0.07554464 -0.05233203 0.08061942 -0.06366322 -0.067631684
-0.021280345 -0.0049069477 0.07748381 0.015386179 -0.06875776 -0.038865596 0.09240939 -0.10492911
0.003958236 -0.08177498 0.0012913388 0.07288789 -0.07278683 -0.02315338 -0.029214272 -0.025961217
-0.0612504 0.047183108 0.09664185 0.039560903 0.025166497 -0.08757611 0.039490856 -0.10152558
0.02044425 -0.0821987 -0.07843748 -0.026574925 -0.101999894 -0.090319574 0.051508285 -0.08488848
-0.068655305 0.06938502 0.09094474 0.08087608 -0.080811426 -0.03461192 -0.08976239 0.07518481
0.058971424 0.026119918 -0.08197142 -0.067703396 0.019018743 -0.054461125 -0.0035778214 -0.04099304
-0.033849746 0.06266585 0.056388155 -0.060418557 0.007082639 -0.08646086 -0.007065141 -0.029673642
0.012734676 0.07560867 0.0053473115 0.052846704 -0.0126276165 -0.09552141 -0.08459226 0.0961113
-0.082038365 0.037716623 0.059658337 -0.07229675 -0.02766042 -0.09827272 0.023449792 0.055120047
0.06172776 -0.08383035 0.064915955 0.072068475 -0.029613938 -0.05930831 -0.014750647 -0.026172664
-0.0054243165 0.08755872 0.08333965 0.051384248 -0.008609197 -0.052860606 -0.06316292 0.09585264
-0.02352922 -0.05662892 0.110124685 -0.00088988227 0.054289043 0.0031323608 -0.08971788 0.058767837
-0.03520675 0.016305521 -0.082913145 0.035890628 0.07753461 -0.061021794 -0.0949321 -0.05754322
-0.023966799 -0.06379526 0.06218982 0.07373894 0.05567146 -0.01645957 -0.041149683 0.061362185
0.09780557 -0.09667001 -0.10017384 -0.07123178 0.08678746 0.040446844 0.09536378 0.017873548
-0.021485116 -0.02279444 0.07507726 0.04308487 0.05810037 0.08814545 -0.007445344 0.08591543
-0.022623308 -0.06914845 0.06953906 -0.07444355 -0.0033929776 -0.03863418 -0.028814781 -0.026070789
-0.027831163 0.08847393 -0.04553845 -0.04700153 0.060668763 0.022662824 -0.08682259 -0.07005597
-0.05338727 -0.046665147 0.042674378 -0.102538586 -0.0036418443 -0.038019434 0.046681628 0.09627542
-0.08558747 0.049193885 -0.041318048 0.03164967 0.03225565 0.030314313 0.017629668 -0.045959793
0.049250536 0.008107233 -0.019435074 0.12710261 -0.061452873 -0.053448215 -0.055052485 0.019526493
0.10858462 -0.027624832 -0.053570434 -0.15358461 0.101304196 -0.036678206 0.0028063178 0.060312547
-0.025362894 -0.120287724 0.062230833 -0.0059987577 -0.033146806 0.09597249 0.08693307 0.09646973
0.042693704 0.050650835 0.09927251 -0.030742167 0.17332467 -0.07266294 0.09961609 0.05230486
00000000: 1642 80bd 4d42 813c 08b7 ad3d 67c6 70bd
00000010: 5424 baba f470 163c 963e 943c adee 0f3d
00000020: 1d20 443d 865c 1dbd cbc9 cf3c 40de 8d3d
00000030: 021a 443a 141d e5bd 4612 153d 70e3 abbd
00000040: 659c 393d da20 2b3d 7269 aebd 1c87 56bd
00000050: c3b4 b2bd 99e6 b4bd 5a58 3f3d d417 5f3d
00000060: a82e b3bb 8d83 bdbd 7258 a7bc 573a a1bc
00000070: 39db b73d 597a 133d 0057 2abd 7341 57bd
00000080: ff24 97bd 8240 b8bd 3bf7 48bd ee98 b23d
00000090: db06 b3bd 26eb f0bc d767 7fbd a789 a8bd
000000a0: eb3b bf3d 1f69 853d 43cf d43d 966f a53d
000000b0: fbf0 ca3d 73a9 663d 3484 c3bd 54e7 383d
000000c0: 8fe6 9abd c76c f33c 47f3 803c 6cd3 93bc
000000d0: 5ddd d13d 5d2d b6bc 313a 85bd 8b34 26bc
000000e0: d369 19bd c5b6 aebd 4818 bbbd 26b7 9abd
000000f0: 1c5a 56bd cb1b a53d dd61 82bd 7b82 8abd
00000100: 1e54 aebc 76ca a0bb d5af 9e3d 5016 7c3c
00000110: ded0 8cbd 8831 1fbd 2241 bd3d 13e5 d6bd
00000120: 17b4 813b a479 a7bd 2442 a93a 3f46 953d
00000130: 4311 95bd 28ac bdbc c552 efbc 9eac d4bc
00000140: b3e1 7abd 1343 413d 2aec c53d 9d0a 223d
00000150: f829 ce3c 1b5b b3bd 2ac1 213d a5ec cfbd
00000160: b37a a73c cb57 a8bd d4a3 a0bd a8b3 d9bc
00000170: 52e5 d0bd 78f9 b8bd 5afa 523d 03da adbd
00000180: 279b 8cbd bc19 8e3d 3c41 ba3d 5ca2 a53d
00000190: 7680 a5bd 3bc5 0dbd 58d5 b7bd 7efa 993d
000001a0: 058c 713d 70f9 d53c a2e0 a7bd 14a8 8abd
000001b0: 32cd 9b3c a112 5fbd e279 6abb 51e8 27bd
000001c0: 08a6 0abd f456 803d 44f7 663d 7379 77bd
000001d0: 7b15 e83b 6412 b1bd b382 e7bb 2316 f3bc
000001e0: 1aa5 503c b8d8 9a3d 8038 af3b c975 583d
000001f0: 10e4 4ebc bba0 c3bd b53e adbd 00d6 c43d
00000200: bb03 a8bd bf7c 1a3d 4d5c 743d 5210 94bd
00000210: 1b98 e2bc 3543 c9bd c719 c03c 8fc5 613d
00000220: 3fd6 7c3d 3faf abbd a8f2 843d a398 933d
00000230: ee98 f2bc 45ed 72bd b3ac 71bc 0e68 d6bc
00000240: 77be b1bb fc51 b33d faad aa3d 4a78 523d
00000250: 970d 0dbc 5d84 58bd 905b 81bd 644e c43d
00000260: 5ac0 c0bc baf3 67bd 0d89 e13d fd46 69ba
00000270: 305e 5e3d 4b48 4d3b 02be b7bd 8bb6 703d
00000280: f434 10bd 2893 853c 5ece a9bd 0d02 133d
00000290: 77ca 9e3d fdf1 79bd c36b c2bd 71b2 6bbd
000002a0: 0556 c4bc 17a7 82bd c1ba 7e3d 7104 973d
000002b0: c207 643d 38d6 86bc 928c 28bd ea56 7b3d
000002c0: 494e c83d edfa c5bd f127 cdbd f8e1 91bd
000002d0: a0bd b13d 97ab 253d 164e c33d 8c6b 923c
000002e0: 8e01 b0bc 68bb babc 1bc2 993d c379 303d
000002f0: a7fa 6d3d 9a85 b43d 12f8 f3bb 6ef4 af3d
00000300: 8454 b9bc b49d 8dbd 7f6a 8e3d dc75 98bd
00000310: b85c 5ebb e03e 1ebd fa0c ecbc 6892 d5bc
00000320: 2efe e3bc d231 b53d 8786 3abd ad84 40bd
00000330: cf7f 783d 63a7 b93c 0bd0 b1bd 8179 8fbd
00000340: 9cac 5abd f423 3fbd 54cb 2e3d c0ff d1bd
00000350: 02ac 6ebb 44ba 1bbd 3c35 3f3d 0c2c c53d
00000360: 7c48 afbd 877f 493d 1d3d 29bd 16a3 013d
00000370: 801e 043d b955 f83c 186c 903c 5640 3cbd
00000380: eeba 493d 33d4 043c 4e36 9fbc 3027 023e
00000390: 02b6 7bbd 84ec 5abd b77e 61bd 06f6 9f3c
000003a0: 9d61 de3d 794d e2bc ac6c 5bbd 4945 1dbe
000003b0: 9378 cf3d e33b 16bd 33ea 373b 4a0a 773d
000003c0: d8c5 cfbc 6959 f6bd c2e5 7e3d 3a91 c4bb
000003d0: f2c4 07bd 3a8d c43d f709 b23d ec91 c53d
000003e0: 98df 2e3d 4077 4f3d 634f cb3d ffd6 fbbc
000003f0: 067c 313e 4fd0 94bd 8503 cc3d 9f3d 563d

fc3.bias f4 [3]
0.0961326 0.0684725 0.085466385
00000000: 2be1 c43d 4f3b 8c3d 0009 af3d
