model/trained_model/model.pt (torch, 49268 bytes, 6 tensors)

fc1.weight f4 [100, 9]
-0.14121892 -1.5165458 -0.18628314 0.13474643 1.0935727 0.08173346 -0.13252962 0.071801
0.12883925 -0.40897644 0.35988393 0.0039380095 -0.28788796 -0.332796 0.07737829 -0.14445287
0.22090305 0.29464474 -0.16089484 0.059547406 -0.18918295 0.013122973 -0.070454285 0.12950364
-0.19445427 -0.25885946 0.17146987 -0.21522193 -0.2843376 0.123651296 -0.32500443 0.031097496
0.042426925 -0.30752844 -0.007713138 -0.2568392 -0.072289996 0.8991258 -0.43272913 -0.27460825
-0.22875184 0.10121917 -0.04687344 -0.15516403 0.031458948 0.311662 0.25986594 0.09849915
-0.049215883 0.043839537 -0.24042329 0.108175404 0.04983687 0.24016102 0.07015654 0.51505065
-0.12886551 0.30861 -0.5308147 -0.035465423 0.0022545394 0.21614343 -0.2226549 0.014292067
-0.4869753 -0.2237202 0.14898804 -0.11796271 0.13513519 0.30159694 0.07470767 0.11328473
0.05007325 0.085516855 -0.34926704 0.03608048 -0.35356274 0.21094872 -0.06807128 -0.029017432
0.31151533 0.16915895 0.065697774 0.16717318 0.2601244 -0.33175924 -0.44488147 0.30143157
0.2125751 -0.28932998 -0.122812405 -0.28504735 -0.049210403 -0.17285028 0.363496 0.050413143
-0.16381279 -0.02058339 -0.14510018 0.08973543 -0.45311168 -0.0388763 0.2919185 0.43940452
0.100614406 -0.27572685 0.15580046 0.31899768 0.2896449 -0.29123807 -0.24931097 -0.22995901
0.14230952 -0.21271427 0.16773134 0.13974312 -0.14503129 0.1826181 -0.3792556 -0.14650452
0.0050565326 0.56826866 0.22073282 0.3010215 0.26538187 0.023312578 0.25698116 0.5008563
-0.14414203 -0.1219601 -0.8507611 -0.4441494 0.120700926 0.2946343 0.10264519 -0.32589725
0.017745122 -0.01081693 0.08002132 -0.81044763 0.065173544 0.31842652 -0.31376502 -0.33963332
0.06394255 -0.14473993 -0.035557985 0.15168978 -0.32403976 0.11841114 0.08452215 -0.26020944
-0.16642298 0.07765991 0.87901425 0.07776998 0.095862925 -0.3877842 -0.40586388 -0.37845838
-0.2451087 -0.20893411 0.1413192 0.23494187 0.30742756 0.004344328 -0.23747294 0.14722733
0.22479112 0.25276238 -0.21868423 -0.069303334 -1.2995481 0.1206266 0.068526424 1.0616664
0.42241144 -0.21176167 0.094897196 0.20570646 0.2889699 0.17970061 -0.033305425 0.26833317
-0.37839943 0.06220675 0.29612222 -0.00905129 -0.09701522 0.22519241 0.08192055 -0.035412278
-0.0898357 0.15708393 0.1107746 -0.3017624 -0.32825184 -0.15770638 -0.21003221 0.11425867
0.20551695 -0.00906321 -0.55674016 -0.24066637 0.34877235 0.020301228 -0.25967276 -0.025161592
-0.70806354 -0.028227398 -0.10035281 0.99463844 0.35335976 -0.23112863 -0.2552983 -0.08577217
0.27697286 0.18949874 0.035228986 0.3161843 -0.059321996 -0.12910561 -0.30391598 0.08435617
-0.03063763 0.059082944 0.29867828 -0.24296528 -0.29657844 0.049815163 -0.21160947 0.22382288
-0.058393184 -0.016088257 0.3217369 0.25251314 0.19264176 -0.24217984 -0.38003117 -0.05549067
0.101173274 -0.005348616 -0.21618354 -0.20512855 0.11301219 0.012584961 -0.017489268 -0.30167288
-0.038098592 -0.1783778 -0.17572215 0.24103649 0.30152977 0.64684385 -0.1674038 -0.011102275
00000000: b19b 10be 2c1e c2bf 02c1 3ebe f8fa 093e
00000010: 31fa 8b3f df63 a73d d8b5 07be 670c 933d
00000020: 70ee 033e 5c65 d1be b542 b83e 6b0a 813b
00000030: 0d66 93be 3d64 aabe 8278 9e3d 74eb 13be
00000040: 6934 623e addb 963e 9ec1 24be fbe7 733d
00000050: 2db9 41be bd01 573c 564a 90bd 9a9c 043e
00000060: 051f 47be 3a89 84be cc95 2f3e 2363 5cbe
00000070: b394 91be e43c fd3d fb66 a6be 2dc0 fe3c
00000080: dbc7 2d3d 5e74 9dbe 7ebe fcbb 6d80 83be
00000090: c70c 94bd 1c2d 663f ac8e ddbe 7499 8cbe
000000a0: ec3d 6abe ff4b cf3d 5dfe 3fbd 52e3 1ebe
000000b0: 19db 003d 2992 9f3e 260d 853e ecb9 c93d
000000c0: 9896 49bd 1691 333d 8631 76be 118b dd3d
000000d0: bf21 4c3d c5ec 753e 3bae 8f3d 5cda 033f
000000e0: 52f5 03be 2102 9e3e 79e3 07bf 3144 11bd
000000f0: e5c0 133b b454 5d3e a5ff 63be 4629 6a3c
00000100: d454 f9be e816 65be 5290 183e 6f96 f1bd
00000110: e160 0a3e ea6a 9a3e 5600 993d d301 e83d
00000120: 9c19 4d3d 7623 af3d 21d3 b2be 20c9 133d
00000130: 2d06 b5be f102 583e f568 8bbd f7b5 edbc
00000140: f07e 9f3e 0138 2d3e 8e8c 863d 722f 2b3e
00000150: 062f 853e 59dc a9be 81c7 e3be 3d55 9a3e
00000160: 49ad 593e 0f23 94be 1285 fbbd baf1 91be
00000170: d990 49bd aaff 30be 261c ba3e 037e 4e3d
00000180: 8abe 27be 7f9e a8bc 2495 14be 36c7 b73d
00000190: 41fe e7be c13c 1fbd 5776 953e a1f9 e03e
000001a0: ed0e ce3d 122c 8dbe 288a 1f3e aa53 a33e
000001b0: 564c 943e 281d 95be 604b 7fbe 607a 6bbe
000001c0: 96b9 113e c5d1 59be c4c1 2b3e d218 0f3e
000001d0: 1583 14be 3d00 3b3e ca2d c2be 4805 16be
000001e0: 45b1 a53b 0e7a 113f c907 623e 7d1f 9a3e
000001f0: 22e0 873e 05fa be3c 0993 833e 1e38 003f
00000200: f899 13be 38c6 f9bd 7bcb 59bf 8d67 e3be
00000210: 0c32 f73d 4fda 963e a437 d23d 01dc a6be
00000220: 385e 913c 7e39 31bc 38e2 a33d 7f79 4fbf
00000230: b579 853d cd08 a33e cfa5 a0be 6be4 adbe
00000240: 50f4 823d b436 14be 40a5 11bd 9154 1b3e
00000250: 8ae8 a5be 8a81 f23d f319 ad3d 2c3a 85be
00000260: c96a 2abe 290c 9f3d 1407 613f de45 9f3d
00000270: c853 c43d a78b c6be 64cd cfbe 4cc5 c1be
00000280: c6fd 7abe d3f2 55be fbb5 103e 9a94 703e
00000290: 2567 9d3e dd5a 8e3b 1b2c 73be c3c2 163e
000002a0: a52f 663e 126a 813e c2ee 5fbe e8ee 8dbd
000002b0: 9857 a6bf 140b f73d 9557 8c3d afe4 873f
000002c0: 5046 d83e 0dd8 58be 7659 c23d b7a4 523e
000002d0: ddf3 933e 7003 383e 456b 08bd f762 893e
000002e0: 92bd c1be 81cc 7e3d 559d 973e dd4b 14bc
000002f0: eaaf c6bd d798 663e f6c5 a73d 770c 11bd
00000300: c8fb b7bd 9cda 203e cbdd e23d 9a80 9abe
00000310: a010 a8be c87d 21be af12 57be 7300 ea3d
00000320: 0973 523e dc7d 14bc 8686 0ebf 3f71 76be
00000330: 4a92 b23e c34e a63c d4f3 84be af1f cebc
00000340: a743 35bf 253d e7bc c685 cdbd a0a0 7e3f
00000350: 92eb b43e fcac 6cbe 75b6 82be 52a9 afbd
00000360: 63cf 8d3e f50b 423e 454c 103d e9e2 a13e
00000370: 9ffb 72bd 4334 04be e09a 9bbe edc2 ac3d
00000380: c4fb fabc f500 723d 5cec 983e e4cb 78be
00000390: 21d9 97be fc0a 4c3d 27b0 58be d331 653e
000003a0: b12d 6fbd 85cb 83bc b3ba a43e 6749 813e
000003b0: e243 453e fefd 77be 7293 c2be 2f4a 63bd
000003c0: ef33 cf3d 7143 afbb 385f 5dbe 380d 52be
000003d0: ef72 e73d 2731 4e3c a745 8fbc de74 9abe
000003e0: 450d 1cbd aca8 36be 82f0 33be 45d2 763e
000003f0: 1c62 9a3e 8f97 253f e76b 2bbe 51e6 35bc

fc1.bias f4 [100]
0.031632595 0.13308215 -0.16994527 -0.040111892 0.22299601 -0.11915541 0.25260144 0.055224583
0.048080634 0.17615831 0.24942967 0.022835564 0.042347137 0.027800836 -0.26477262 0.013620735
0.21673025 -0.23541868 0.0698326 -0.18133992 0.1707014 -0.052809924 0.24617049 0.2935965
0.03509288 -0.25334144 0.21039332 0.26586094 -0.24486192 -0.0031598161 0.32616597 -0.2640467
0.015078956 -0.03990447 -0.1471721 0.22576053 0.12357164 -0.25835714 0.29482538 -0.13908707
0.17821333 -0.006157837 -0.2300663 -0.13474491 -0.2033668 0.0013903729 0.31166407 0.1648465
-0.112573914 -0.238651 0.18186158 0.045860775 0.2694657 0.20085655 -0.27135938 0.22968692
0.12644759 -0.06611972 0.1093479 -0.07135189 0.11241831 0.07398496 0.006008203 0.1318153
0.046015784 -0.1516469 0.24594428 0.19053924 -0.19792731 0.09462063 -0.24332552 -0.0813807
-0.22741519 -0.15453742 0.17064272 -0.07849499 0.05523214 -0.19865184 0.24567324 0.32448614
0.057801984 -0.30532154 -0.031625748 -0.32638165 -0.23278974 -0.3194422 -0.13917248 -0.2770959
-0.10282175 0.19101816 -0.27724355 -0.29324037 -0.19290942 0.29480705 -0.04979353 0.26421103
0.2803471 -0.3146796 -0.27639955 -0.32952383
00000000: 2e91 013d b046 083e 2206 2ebe 5e4c 24bd
00000010: 1159 643e c007 f4bd fa54 813e 2c33 623d
00000020: 33f0 443d d862 343e 7e6a 7f3e a611 bb3c
00000030: 3174 2d3d 94be e33c 4790 87be 8129 5f3c
00000040: 89ee 5d3e 9811 71be 6504 8f3d 2cb1 39be
00000050: 59cc 2e3e 384f 58bd 1e14 7c3e 4852 963e
00000060: 8dbd 0f3d f8b5 81be 5971 573e ed1e 883e
00000070: 15bd 7abe eb14 4fbb 3aff a63e 2131 87be
00000080: ba0d 773c df72 23bd 48b4 16be c52d 673e
00000090: 2113 fd3d 6347 84be 5af3 963e d76c 0ebe
000000a0: 8e7d 363e aec7 c9bb 8096 6bbe 92fa 09be
000000b0: 633f 50be 2c3d b63a 6f92 9f3e 85cd 283e
000000c0: 278d e6bd ee60 74be ec39 3a3e 82d8 3b3d
000000d0: 69f7 893e 57ad 4d3e 9eef 8abe 0c33 6b3e
000000e0: 7a7b 013e c769 87bd cbf1 df3d f120 92bd
000000f0: 923b e63d 6d85 973d 76e0 c43b 97fa 063e
00000100: 0c7b 3c3d 5349 1bbe d1d8 7b3e b81c 433e
00000110: 75ad 4abe 76c8 c13d 532a 79be edaa a6bd
00000120: 87df 68be 0f3f 1ebe f7bc 2e3e fbc1 a0bd
00000130: 193b 623d 636b 4bbe c491 7b3e 0c23 a63e
00000140: c6c1 6c3d 1b53 9cbe 008a 01bd 7f1b a7be
00000150: 6f60 6ebe ee8d a3be 3b83 0ebe 84df 8dbe
00000160: 3694 d2bd 449a 433e def2 8dbe 9a23 96be
00000170: 0c8a 45be f3f0 963e 4df4 4bbd ab46 873e
00000180: a889 8f3e af1d a1be 3e84 8dbe 59b7 a8be

fc2.weight f4 [100, 100]
-0.021322347 -0.070407 -0.05809582 0.073598325 -0.11016287 -0.07710623 0.0154594295 0.051448423
-0.072824575 -0.040866464 -0.0739418 0.05764503 0.018063555 -0.063197054 0.04147186 0.08155279
0.031757157 0.050651103 -0.09613261 -0.06490337 -0.06383401 0.05345184 0.008472841 -0.05705607
0.06635056 -0.08369271 -0.0024792594 -0.05228913 -0.06940478 0.04971894 -0.024476811 -0.009633973
0.07692001 -0.05101582 -0.035497934 0.0033120809 0.09615388 0.01631907 -0.07666799 0.044115897
-0.08707422 0.09772231 0.090329185 -0.012387776 0.0009143499 -0.028930085 0.0070455475 -0.0107155135
0.010959015 -0.042386867 0.017596921 -0.083353326 0.013705601 0.021808537 0.13330625 0.013034221
0.006159004 -0.009998372 0.0446708 -0.02159132 -0.06050753 -0.04559219 -0.0024182869 -0.030695178
-0.054003574 -0.031690646 0.079221874 -0.08274503 0.070623204 -0.063801244 -0.05213144 0.004881987
-0.027339622 0.046248224 0.08025032 -0.024571566 -0.01581339 -0.022563282 0.05311428 0.07131539
0.08571495 0.11528885 -0.022609351 0.0195431 -0.0058374535 -0.09471246 0.038579386 -0.015924122
-0.04074454 0.07135548 -0.0050381687 -0.057341635 0.04556966 -0.08968641 -0.0066123744 0.015514995
0.10914386 0.016533796 -0.009262455 0.013830932 0.06872988 0.028803326 0.03847106 -0.09206517
0.0064748893 -0.009948367 0.040690668 0.007663932 0.026512006 0.047542296 0.093894705 0.009437397
-0.028345242 -0.05805862 0.021832852 -0.08550091 0.009609873 0.016462574 0.0285446 0.058015767
0.040380064 0.081700176 -0.1045865 0.076302834 -0.0032105444 0.04287719 0.08548508 0.05237856
-0.04843719 -0.091080666 0.0642253 0.034551557 -0.058924455 -0.03169339 0.0782003 0.10769503
0.09629823 0.027171444 -0.04773236 0.046791635 0.08221339 0.028669221 -0.06411911 -0.0329361
-0.059334025 -0.00067593006 -0.017674662 -0.06798925 -0.013516085 0.061802655 0.002374887 -0.09286391
0.06981496 -0.030171081 0.086376205 0.036223814 -0.10203063 0.031224031 0.0091495 0.07216722
-0.039810766 0.02887974 -0.060389858 0.006207523 -0.018008206 0.0036564588 -0.025082491 0.046371136
-0.0412997 0.010095234 0.06916461 -0.029015006 0.032361522 0.0792604 -0.08842681 0.05724116
-0.06976036 -0.024493009 0.08659435 -0.072957054 0.030580271 -0.0368841 0.021681655 -0.00442431
-0.08985047 0.06556215 0.02362821 -0.12208508 0.053879716 -0.0066301962 -0.0034582359 0.015894199
-0.0077759945 0.054973427 -0.027571144 -0.016122673 -0.06549926 0.033571377 -0.044482537 -0.0076888236
0.0804893 -0.06452301 -0.043198097 0.04393434 0.06858221 0.074013606 0.05395399 -0.08548763
-0.046255894 -0.042263053 0.094442606 -0.059602376 -0.011503113 0.020369597 -0.0635992 0.0730629
-0.028857682 0.051264543 -0.069165416 -0.05655151 -0.09032619 -0.016537849 -0.035047717 -0.009782167
0.04775376 0.015018201 0.010121362 -0.065106876 0.011154585 -0.0703158 0.0052063433 0.007317649
-0.060541477 -0.02845813 0.09064222 0.023147529 -0.015210552 0.17669816 0.06757126 -0.07375735
0.012878452 0.06307583 0.022369228 0.0124236075 0.027141154 0.07111528 -0.07881391 -0.025208684
-0.05057775 -0.08865181 0.084566884 0.06370358 0.013210147 0.071641095 0.11018044 0.017427107
00000000: 34ac aebc 8c31 90bd e2f5 6dbd b8ba 963d
00000010: 129d e1bd dfe9 9dbd 8c49 7d3c 95bb 523d
00000020: 0d25 95bd 9863 27bd cc6e 97bd 321d 6c3d
00000030: 05fa 933c 756d 81bd 66de 293d 2605 a73d
00000040: cb13 023d 8877 4f3d 2de1 c4bd 0fec 84bd
00000050: 68bb 82bd 51f0 5a3d acd1 0a3c a0b3 69bd
00000060: cde2 873d 1567 abbd 127b 22bb 202d 56bd
00000070: 1824 8ebd 16a6 4b3d 9883 c8bc d0d7 1dbc
00000080: 3d88 9d3d f7f5 50bd 4866 11bd 7f0f 593b
00000090: 53ec c43d 92af 853c 1b04 9dbd dfb2 343d
000000a0: f853 b2bd a222 c83d 82fe b83d 19f6 4abc
000000b0: fcb0 6f3a c9fe ecbc 56de e63b 1f90 2fbc
000000c0: 718d 333c da9d 2dbd 6b27 903c 26b5 aabd
000000d0: 758d 603c d1a7 b23c 6f81 083e 7c8d 553c
000000e0: 78d1 c93b 36d0 23bc bbf8 363d 48e0 b0bc
000000f0: bed6 77bd e0be 3abd 1f7c 1ebb 7474 fbbc
00000100: da32 5dbd 0dce 01bd 143f a23d 3a76 a9bd
00000110: e6a2 903d 3aaa 82bd c787 55bd 13f9 9f3b
00000120: 58f7 dfbc c76e 3d3d 485a a43d 4f4a c9bc
00000130: 158b 81bc a2d6 b8bc 5c8e 593d ce0d 923d
00000140: 528b af3d 901c ec3d 3f37 b9bc da18 a03c
00000150: 1c48 bfbb 9bf8 c1bd 6b05 1e3d 4e73 82bc
00000160: bfe3 26bd d222 923d 3917 a5bb 10df 6abd
00000170: 40a7 3a3d 82ad b7bd 9eac d8bb 9b32 7e3c
00000180: d186 df3d e271 873c 8dc1 17bc 229b 623c
00000190: 40c2 8c3d f4f4 eb3c d593 1d3d aa8c bcbd
000001a0: 4f2b d43b 7afe 22bc 42ab 263d b921 fb3b
000001b0: b52f d93c b6bb 423d de4b c03d 509f 1a3c
000001c0: 4834 e8bc e0ce 6dbd cfda b23c 1a1b afbd
000001d0: bb72 1d3c 85dc 863c 5dd6 e93c f1a1 6d3d
000001e0: 9165 253d 6c52 a73d 7231 d6bd a944 9c3d
000001f0: ff67 52bb fe9f 2f3d cd12 af3d e78a 563d
00000200: 1366 46bd 8088 babd 8e88 833d ef85 0d3d
00000210: c55a 71bd eed0 01bd 7b27 a03d 368f dc3d
00000220: 0238 c53d a696 de3c 0283 43bd 96a8 3f3d
00000230: 7e5f a83d b7db ea3c e150 83bd 01e8 06bd
00000240: 3c08 73bd e630 31ba 74ca 90bc f33d 8bbd
00000250: 9272 5dbc c824 7d3d fea3 1b3b 6f2f bebd
00000260: 25fb 8e3d 5829 f7bc 02e6 b03d 6c5f 143d
00000270: 6ff5 d0bd 8ac9 ff3c c9e7 153c 68cc 933d
00000280: 9d10 23bd 3495 ec3c 5b5b 77bd 7a68 cb3b
00000290: f285 93bc 33a1 6f3b cc79 cdbc a9ef 3d3d
000002a0: e029 29bd 7b66 253c 2da6 8d3d e1b0 edbc
000002b0: 848d 043d 4753 a23d 1e19 b5bd b575 6a3d
000002c0: 85de 8ebd 90a5 c8bc 6158 b13d 826a 95bd
000002d0: 7a83 fa3c c813 17bd ba9d b13c cdf9 90bb
000002e0: 8603 b8bd 7345 863d f38f c13c be07 fabd
000002f0: fab0 5c3d 1e42 d9bb 92a3 62bb 8d34 823c
00000300: c5cd febb d12b 613d e1dc e1bc b213 84bc
00000310: 7a24 86bd 2482 093d 5233 36bd 87f2 fbbb
00000320: 93d7 a43d a424 84bd 7df0 30bd 7ff4 333d
00000330: d474 8c3d 7294 973d dcfe 5c3d 2314 afbd
00000340: d276 3dbd 061c 2dbd 206b c13d 9f21 74bd
00000350: 8e77 3cbc 24de a63c 4c40 82bd 00a2 953d
00000360: f266 ecbc c5fa 513d 99a6 8dbd 8ea2 67bd
00000370: f0fc b8bd 627a 87bc 328e 0fbd 6245 20bc
00000380: 7299 433d e70e 763c 12d4 253c c156 85bd
00000390: b8c1 363c bb01 90bd f999 aa3b e4c8 ef3b
000003a0: 57fa 77bd 0621 e9bc a1a2 b93d e39f bd3c
000003b0: ae35 79bc 5df0 343e cd62 8a3d 180e 97bd
000003c0: 2500 533c e72d 813d ac3f b73c 638c 4b3c
000003d0: 2057 de3c e3a4 913d 3069 a1bd 7182 cebc
000003e0: 9d2a 4fbd 158f b5bd 6731 ad3d 0677 823d
000003f0: 5f6f 583c 91b8 923d 48a6 e13d 4bc3 8e3c

fc2.bias f4 [100]
0.066076785 0.048583575 -0.010292116 -0.047573768 -0.08426588 0.07089964 -0.08762406 -0.027389403
-0.08274877 0.022124592 0.05824381 0.0735162 0.0060086297 0.06275787 0.016936699 -0.03309165
-0.04221407 -0.08473649 0.0037618568 0.043268908 0.040100366 -0.081165686 0.058908585 -0.023019169
0.028376155 -0.04222467 -0.03172883 -0.07845407 0.06647366 0.051321667 -0.05319323 -0.051666446
-0.002570019 0.04291061 0.060779583 0.0100191645 -0.08609475 0.043357488 -0.011316755 0.0013353804
0.016634705 -0.0021071471 -0.047302566 0.058841296 0.035316806 -0.062423464 0.012324227 0.042355794
0.023236481 -0.04149266 -0.03024191 -0.09502293 0.03611455 0.10352939 -0.0015248507 -0.057260554
-0.0012592834 0.034842663 -0.066199645 0.066297434 -0.018521398 0.06814274 -0.075609095 -0.010244904
-0.028549407 -0.083017185 0.015277356 0.091605395 -0.07131161 0.05548845 0.0049971077 -0.043000665
0.0071893334 0.002258436 -0.09032792 -0.05846076 0.10011248 -0.04988313 0.07010796 -0.05200244
-0.07522677 -0.0035529481 0.06607311 0.09268865 -0.002943835 0.023009991 0.041857205 0.050135348
0.00273 0.08024278 -0.05623478 0.017701367 0.01628514 -0.04272348 0.027525174 -0.024575911
0.08157115 -0.077982984 0.09874334 -0.014790795
00000000: 4453 873d 92ff 463d 43a0 28bc b6dc 42bd
00000010: 9793 acbd d533 913d 3e74 b3bd be5f e0bc
00000020: 3078 a9bd a23e b53c 1091 6e3d a98f 963d
00000030: 0ae4 c43b 3387 803d d5be 8a3c 1c8b 07bd
00000040: a9e8 2cbd 538a adbd 7c89 763b bd3a 313d
00000050: 4840 243d 323a a6bd 214a 713d b292 bcbc
00000060: 1c75 e83c c7f3 2cbd 17f6 01bd 87ac a0bd
00000070: 5823 883d ab36 523d 25e1 59bd 32a0 53bd
00000080: c46d 28bb 09c3 2f3d 03f4 783d 6c27 243c
00000090: 7252 b0bd 9f97 313d e969 39bc ee07 af3a
000000a0: 8145 883c 1018 0abb 56c0 41bd 9203 713d
000000b0: 5ba8 103d bfaf 7fbd 8eeb 493c 457d 2d3d
000000c0: 6f5a be3c 35f4 29bd e2bd f7bc 629b c2bd
000000d0: daec 133d 3807 d43d 80dd c7ba 0b8a 6abd
000000e0: 8a0e a5ba 2eb7 0e3d ae93 87bd f3c6 873d
000000f0: 30ba 97bc 6c8e 8b3d f1d8 9abd 3eda 27bc
00000100: 72e0 e9bc ea04 aabd e04d 7a3c 9c9b bb3d
00000110: d20b 92bd db47 633d c7be a33b 7721 30bd
00000120: 8094 eb3b 4502 143b d8fd b8bd 8d74 6fbd
00000130: c607 cd3d 4152 4cbd c394 8f3d 8300 55bd
00000140: 7e10 9abd 94d8 68bb 5751 873d 8cd3 bd3d
00000150: 5bed 40bb 737f bc3c 7672 2b3d b95a 4d3d
00000160: cde9 323b 5456 a43d 7156 66bd 7502 913c
00000170: 6a68 853c d1fe 2ebd 797c e13c 6c53 c9bc
00000180: c60e a73d 8bb5 9fbd f339 ca3d 1755 72bc

fc3.weight f4 [6, 100]
0.09512931 0.08757493 0.08973894 -0.04456123 0.06549576 -0.05026849 0.065932244 0.06915527
0.08688257 -0.009578833 -0.102749564 0.011876252 0.0021306078 0.005536007 -0.0013385342 -0.041579947
0.23727226 0.03735576 -0.073533684 -0.08446392 -0.021882668 0.041767318 -0.077356145 0.09812206
0.032345437 0.04453679 0.040081415 0.27063596 0.045219164 0.0046856278 -0.18502639 -0.072763324
0.024472805 0.049544472 0.07614654 0.052402858 0.093751416 0.06864667 -0.24639179 0.073545195
-0.05286573 -0.06736553 -0.011180173 0.013074288 0.09452933 0.09131845 -0.026790015 -0.041022327
-0.0120874755 0.0486867 -0.12521717 0.028787661 -0.27388063 0.03847884 -0.04869682 0.005459648
-0.09496533 -0.053700063 -0.0024781034 0.040285356 0.046605825 -0.00017026297 -0.016556459 -0.07877272
-0.060539167 -0.042269155 0.025815655 -0.03052169 -0.06795203 0.021065516 -0.013936012 0.09208309
0.017278155 -0.017767873 -0.10683496 0.033640373 -0.011618849 0.07662887 -0.074225545 -0.023826707
-0.121622026 -0.028905414 -0.018272351 -0.07177856 0.014867166 0.07337975 -0.05332943 0.04790005
0.017333973 -0.09431756 0.082410924 0.054022092 -0.082591854 0.06939344 0.04350414 0.018949995
-0.06056311 0.057341922 -0.06795192 0.0760423 -0.08518454 -0.07400481 0.06135917 0.05899765
0.079478145 0.039541904 0.009230033 -0.039033808 0.031153202 -0.033471443 -0.16148329 0.0908008
-0.026978431 -0.026341682 -0.034650914 -0.004005275 -0.053034462 -0.039005663 0.15795133 0.0045261723
-0.0006965255 0.06647178 -0.049746 0.041564602 0.017805977 0.04693147 0.07223586 -0.095572904
0.022528825 -0.10111641 -0.00058615935 0.2706709 0.05676899 -0.024264531 2.1620897e-05 0.11453548
-0.05447779 -0.010430633 -0.084622845 -0.07122272 -0.09235428 -0.018354073 0.014494085 -0.056916885
0.0869712 0.09023015 0.05376097 -0.04782192 -0.1063102 0.019957522 -0.0035007247 0.08008236
0.0972706 -0.06741636 -0.059309743 -0.0033850777 -0.0034083682 0.018531635 0.0102379285 -0.000117514894
-0.00025712766 -0.043029577 -0.10116746 -0.05007383 0.044897612 0.060113974 -0.06431094 -0.02674097
-0.02878629 -0.02549677 -0.0047722147 -0.079641834 -0.026329665 0.029870111 -0.022434095 -0.031381845
0.023538161 0.026543243 -0.046178866 -0.0880657 0.0036670857 -0.012907526 -0.05327055 0.014094
0.009139261 -0.17410447 0.006465932 0.04797868 -0.038981702 -0.0117964875 -0.084249206 -0.04473529
-0.04576552 0.082303114 0.074881196 -0.09197426 0.022574207 0.07780081 -0.06219127 0.0019715244
0.019151598 -0.10952255 -0.058950737 -0.09948284 -0.4319023 -0.3314344 -0.11105253 0.39860258
0.017562319 -0.20898521 0.36244676 0.0262984 0.18984511 -0.10538724 0.062654145 -0.22961701
-0.430792 -0.01939938 0.3912499 -0.05798691 0.21830814 0.12259587 -0.08761476 0.61992913
-0.000432119 -0.010179506 0.049552117 0.57458144 -0.049472317 -0.010281716 0.3241393 0.08351107
-0.10215713 -0.019855656 -0.18090215 0.024834523 0.06386182 -0.08496572 -1.1657519 0.12547497
-0.07206119 0.51584315 0.0002179956 0.23628722 0.011860614 -0.30957127 0.22044404 0.74813205
0.17120555 -0.551413 -0.40716702 0.09431483 0.65982234 -0.56796914 0.005853929 0.19037497
00000000: 28d3 c23d 7c5a b33d 0dc9 b73d d685 36bd
00000010: a422 863d 55e6 4dbd 7c07 873d 47a1 8d3d
00000020: 7def b13d 8af0 1cbc 5d6e d2bd 9c94 423c
00000030: aba1 0b3b 6567 b53b c171 afba bc4f 2abd
00000040: 80f7 723e 5a02 193d d498 96bd 6bfb acbd
00000050: 4843 b3bc 3514 2b3d e66c 9ebd 38f4 c83d
00000060: a67c 043d 366c 363d 692c 243d cc90 8a3e
00000070: bb37 393d e589 993b 8f77 3dbe f004 95bd
00000080: 317b c83c 25ef 4a3d b8f2 9b3d 61a4 563d
00000090: be00 c03d a096 8c3d 214e 7cbe dd9e 963d
000000a0: bc89 58bd f0f6 89bd 0b2d 37bc 8a35 563c
000000b0: 9898 c13d 2b05 bb3d bc76 dbbc 0707 28bd
000000c0: 8c0a 46bc b56b 473d ee38 00be 1ad4 eb3c
000000d0: 153a 8cbe fd9b 1d3d 5176 47bd d9e6 b23b
000000e0: 2f7d c2bd 99f4 5bbd ad67 22bb 4202 253d
000000f0: c0e5 3e3d 9e88 32b9 69a1 87bc 9853 a1bd
00000100: ebf7 77bd 6c22 2dbd 5a7b d33c a008 fabc
00000110: 6f2a 8bbd 9791 ac3c df53 64bc 0f96 bc3d
00000120: eb8a 8d3c ee8d 91bc 4acc dabd 7dca 093d
00000130: fc5c 3ebc 99ef 9c3d 9003 98bd 3a30 c3bc
00000140: f814 f9bd 0ccb ecbc e6af 95bc a300 93bd
00000150: 6a95 733c 1f48 963d f66f 5abd d832 443d
00000160: faff 8d3c 9129 c1bd 0fc7 a83d 4546 5d3d
00000170: eb25 a9bd 261e 8e3d 6631 323d 053d 9b3c
00000180: 0611 78bd 5ddf 6a3d 602a 8bbd 11bc 9b3d
00000190: 3b75 aebd d58f 97bd c153 7b3d 85a7 713d
000001a0: 70c5 a23d b1f6 213d 9039 173c eae1 1fbd
000001b0: 0035 ff3c 5a19 09bd e05b 25be c5f5 b93d
000001c0: df01 ddbc 83ca d7bc 1eee 0dbd af3e 83bb
000001d0: aa3a 59bd 67c4 1fbd febd 213e 4950 943b
000001e0: 0997 36ba 5b22 883d 76c2 4bbd a53f 2a3d
000001f0: d7dd 913c 373b 403d 65f0 933d babb c3bd
00000200: 5f8e b83c 1f16 cfbd 7da8 19ba 6095 8a3e
00000210: 9a86 683d 69c6 c6bc 865e b537 9491 ea3d
00000220: 1a24 5fbd 3fe5 2abc be4e adbd 38dd 91bd
00000230: 3e24 bdbd 485b 96bc 9978 6d3c ae21 69bd
00000240: f51d b23d 96ca b83d 7634 5c3d ebe0 43bd
00000250: 2ab9 d9bd f57d a33c 6a6c 65bb 3802 a43d
00000260: cf35 c73d 9711 8abd c6ee 72bd 2ed8 5dbb
00000270: ee5e 5fbb a8cf 973c fcbc 273c 5472 f6b8
00000280: 17cf 86b9 c83f 30bd e330 cfbd 371a 4dbd
00000290: 8fe6 373d 123a 763d 74b5 83bd e10f dbbc
000002a0: 3ad1 ebbc 9ade d0bc 3d60 9cbb 421b a3bd
000002b0: 4fb1 d7bc 2ab2 f43c b5c7 b7bc 408a 00bd
000002c0: 1ad3 c03c 3771 d93c 0d26 3dbd ca5b b4bd
000002d0: 7d53 703b 177a 53bc 3832 5abd 85ea 663c
000002e0: d7bc 153c 7148 32be 2be0 d33b 4b85 443d
000002f0: 47ab 1fbd 0e46 41bc d98a acbd 5a3c 37bd
00000300: a074 3bbd 898e a83d 505b 993d 005d bcbd
00000310: 8bed b83c 0856 9f3d 46bc 7ebd b134 013b
00000320: d0e3 9c3c 5c4d e0bd 5476 71bd a9bd cbbd
00000330: 4c22 ddbe c5b1 a9be 826f e3bd a315 cc3e
00000340: dade 8f3c 3800 56be 9f92 b93e be6f d73c
00000350: c266 423e 44d5 d7bd d150 803d b920 6bbe
00000360: c590 dcbe 73eb 9ebc e851 c83e af83 6dbd
00000370: 2b8c 5f3e 8b13 fb3d 5e6f b3bd adb3 1e3f
00000380: 088e e2b9 f1c7 26bc 29f7 4a3d c517 133f
00000390: 7ca3 4abd a474 28bc 96f5 a53e da07 ab3d
000003a0: c237 d1bd 54a8 a2bc 6a3e 39be c571 cb3c
000003b0: fcc9 823d 8202 aebd 5c37 95bf 837c 003e
000003c0: d194 93bd 4c0e 043f c095 6439 47f5 713e
000003d0: 0553 423c 2080 9ebe 15bc 613e 9585 3f3f
000003e0: 8250 2f3e 6729 0dbf 3278 d0be 2228 c13d
000003f0: 1eea 283f 6d66 11bf 51d2 bf3b a8f1 423e

fc3.bias f4 [6]
0.05508761 0.027446367 0.020987913 -0.009570399 -0.029272558 -0.054186814
00000000: 8ca3 613d 34d7 e03c d8ee ab3c 2acd 1cbc
00000010: 01cd efbc fef2 5dbd
