model/trained_model/model.pt (torch, 46836 bytes, 6 tensors)

fc1.weight f4 [100, 6]
00000000: 0b07 86bd d4d9 b13d b41c 7dbe cba7 9bbc
00000010: 2977 553e 7571 20bd e24f 9ebe 628c c33e
00000020: 2e01 193d 5f7c f33c 3f53 6dbe 0acc b03b
00000030: 7bab c0be 0ab0 c8be 9069 653e 3f66 b63e
00000040: 2e84 b2be f815 cf3e 379b 923e d41f 893e
00000050: d819 4b3e 8176 a33e 63b1 be3e d741 a73e
00000060: a34b 723d 4d29 ee3d cb94 97be 18c8 2ebe
00000070: 670a 87be bbed 9c3e 8cdc ce3e 7f9f d23d
00000080: c961 ec3e d10f 9e3e a728 6cbe aad6 6b3d
00000090: 8151 4cbe e74c 6cbe ebc5 9fbe 152e 8d3d
000000a0: 4a55 9e3e 87c9 013e eb50 9dbe 7db6 88bd
000000b0: 1e4c 6cbe c0c8 a63d 2984 813e 63ae 68bd
000000c0: 24b8 e6bb 4f2e 8a3d c80c 91be 07ce af3d
000000d0: a658 9a3e 24ba cb3e d54c f73d 1b40 7abe
000000e0: b91d 3bbc 796d 6c3d 7a76 8cbe f18a d7be
000000f0: df47 013e c4ce 10be dfe5 58be 1565 1c3e
00000100: 50ff 1cbe 8060 cb3c 9155 b43e c53b b13e
00000110: 5327 b8be 9826 3e3e f94a 61bd 0a66 c83e
00000120: 7501 763e a149 283d 5279 a7be a9c2 8fbe
00000130: 68b7 b6be 2d5c 34be 79ea 84bd 68cf 823e
00000140: 5ffa c03e e38b 3b3e dbfc bdbe 78c0 a83e
00000150: 0b13 0ebe 9784 5bbe 001a f73d e08a 59bd
00000160: f7f3 9b3e c373 07be 00e9 9d3e 09d1 b7bd
00000170: 1e36 bb3e 0582 cdbe b534 763d a40c a43e
00000180: 0b9c 4e3e a393 a3bd ba08 26be d38c babd
00000190: d9a3 97be 70ef 4d3b fa1d f6bd d795 e13d
000001a0: e716 773e 6789 993e afb7 f43d a323 f23d
000001b0: 600b 73be 317e 9cbe 6761 9a3e cb9a 11be
000001c0: 7cab 01ba bc35 243c 19ce 2fbe af82 32bd
000001d0: 4f49 8b3e 3f5c b93e 36ec 963c 0a8f 883d
000001e0: 63ea 5c3e c096 40be 48e2 553e 0c1c d73e
000001f0: c5cd 8e3e 444a 823e eeac 46be 847f 4ebe
00000200: d3a9 a63c cb9c a93e 3378 b33e badb 9dbe
00000210: 912f 31be ef1b 08be 188b a33e a830 003e
00000220: 2a84 403e 52ba 473e 2a23 d33e d548 d03d
00000230: 74d1 1cbe 801b 7ebe 8ba9 0dbc 33c6 8dbd
00000240: 1a40 0abd 5ede 1fbd aa53 a43e bbc2 84be
00000250: 3f87 a5bd 6f74 113e bde3 993e 2914 433d
00000260: 91a6 953e c0b2 523d 00a0 abbe 9fde a63d
00000270: 0c2d aabc ff5b 85be 3db2 cc3e 735d c5be
00000280: 9f5a 31bd ba4d 94be 08a4 a03e 7340 05be
00000290: 9f90 abbe b39f af3e 725b aa3d e421 5abe
000002a0: f964 4ebe 6ea7 a13e ded6 07bd bbfa b23e
000002b0: 4417 89bd 790c 753e 8074 20be c55e 913d
000002c0: bbb5 1e3d a09c ab3e bf20 cb3e ee28 e83d
000002d0: f2a2 c9be 507b 33bd 24dd c3bd 033b ce3e
000002e0: 4774 133e 9bde afbe 8e65 213c 7263 bb3e
000002f0: ace6 bdbe 8126 7dbd 743b ba3e d99a 1dbe
00000300: babc b4be 3dd9 d03e 2a9f 133e 65a1 cf3d
00000310: 2bf3 103e 3740 43be ae2f c73e 9ade 2bbe
00000320: b05f da3b 0e9c 993e 0c54 0cbe c70b bc3e
00000330: 4e19 293e e524 bd3e cc01 bcbe f83a 6e3e
00000340: 24f0 e5bd 84c5 42be 4e9d ac3e 4128 333e
00000350: 8f14 fe3d 165a d5be 27bc c3be c689 813e
00000360: 995b c2be 0524 d0bd 5eb1 83be 91d4 eebd
00000370: 2cec 4a3e c02e e0be 312a b53e ce8d bc3d
00000380: 45bb e2be cf2a d4be 4feb 63be 6093 783e
00000390: e232 3bbe 7797 e1bd cf80 3bbe 3222 c33e
000003a0: ba92 803e cd8c 19bd 3aa9 b53e 7cf1 913e
000003b0: 8b6c afbd df8b 75be 3062 9fbe 1f08 233c
000003c0: 071b 6b3d 88cf a33e 5c03 b3bd 3e43 283e
000003d0: cc3e 593c 8815 f93b 60e3 47bd b4e0 a03e
000003e0: 0a25 43bd 16a7 a93a 45bb 453d 4d89 04be
000003f0: 4eb5 c9be 8693 8b3d b272 b7be 6285 7b3d
-0.06544312 0.086841255 -0.2471798 -0.019000908 0.20846237 -0.0391707 -0.3092032 0.3819304
0.03735464 0.02972239 -0.23176287 0.005395417 -0.3763083 -0.39196807 0.2240355 0.35624883
-0.3486647 0.40446448 0.28634045 0.26782095 0.19834077 0.3192635 0.3724471 0.3266742
0.059154164 0.11628971 -0.29605708 -0.17068517 -0.26375124 0.30650124 0.4040264 0.10284328
0.46168354 0.30871442 -0.23062383 0.057577766 -0.19952966 -0.23076211 -0.31205687 0.06893555
0.30924445 0.12674533 -0.30725798 -0.06675432 -0.23075911 0.08143759 0.25296143 -0.056806933
-0.0070409942 0.06747114 -0.28330064 0.085842185 0.30145758 0.39790452 0.120752014 -0.24438517
-0.011420661 0.05772159 -0.2743414 -0.4209819 0.12625073 -0.14141375 -0.21181439 0.15272935
-0.15331769 0.024826288 0.35221532 0.34615913 -0.35967502 0.1856941 -0.05500314 0.3914035
0.24023993 0.041085843 -0.32709748 -0.280782 -0.35686803 -0.17613287 -0.064900346 0.25548863
0.37691018 0.18315081 -0.37106976 0.32959342 -0.13874452 -0.21437298 0.12065506 -0.053110957
0.30459568 -0.13227753 0.30841827 -0.08975417 0.36564726 -0.4013826 0.06010886 0.32040894
0.20176713 -0.07987144 -0.16214266 -0.09108891 -0.29617193 0.0031423233 -0.12017436 0.11014908
0.2412983 0.29987642 0.11949097 0.118232034 -0.23734808 -0.30565026 0.30152437 -0.14219205
-0.00049465126 0.010022577 -0.17168464 -0.04358166 0.27204368 0.3620319 0.018423181 0.066679075
0.21573786 -0.18807507 0.208871 0.42013586 0.27891365 0.25447285 -0.19401905 -0.20165831
0.02034465 0.33127436 0.35052642 -0.308317 -0.17303301 -0.13291906 0.31942058 0.12518561
0.18800417 0.1950467 0.41237766 0.101701416 -0.15314275 -0.24815178 -0.008646379 -0.06922569
-0.03375254 -0.039030425 0.3209508 -0.25929818 -0.08082437 0.14204572 0.30056563 0.047626648
0.29228643 0.05144 -0.33520508 0.0814793 -0.020773433 -0.2604675 0.39979735 -0.3854786
-0.043299314 -0.2896555 0.31375146 -0.13012867 -0.33508775 0.34301528 0.08318223 -0.21301991
-0.20155706 0.3157305 -0.033163898 0.34956917 -0.06693891 0.23930539 -0.15669441 0.07098154
0.03874753 0.33517933 0.3967342 0.11335932 -0.3938213 -0.04381877 -0.095636636 0.40279397
0.14399825 -0.34349522 0.009850873 0.36599308 -0.3709005 -0.0618043 0.36373484 -0.15391101
-0.35300237 0.4079074 0.14416185 0.101382054 0.14155261 -0.19067465 0.38903564 -0.16784135
0.006664239 0.30001873 -0.13703936 0.36727735 0.16513559 0.3694221 -0.3672012 0.23264682
-0.11227444 -0.19020659 0.33713764 0.17495824 0.12406265 -0.41670293 -0.38229486 0.25300425
-0.37960508 -0.1016312 -0.25721258 -0.116616376 0.19816655 -0.43785667 0.35383752 0.092067346
-0.442835 -0.4143891 -0.22257732 0.24274969 -0.18281129 -0.11015218 -0.18310855 0.38112026
0.25111943 -0.037487794 0.35480672 0.2850455 -0.08565625 -0.23979138 -0.311296 0.009950667
0.057398822 0.3199427 -0.08740875 0.16431901 0.013259601 0.0076014437 -0.048800826 0.31421435
-0.047642745 0.0012943472 0.048274297 -0.12943001 -0.39396137 0.06815247 -0.35829693 0.0614065

fc1.bias f4 [100]
00000000: 33e6 3c3e 29b5 7fbe 76ac 9cbe 701f 10be
00000010: b1f4 98bd 7b50 b03d dfd7 cf3e 2e4a a2be
00000020: 0224 b53e bfca 6ebe 4e1f c03e 3e9a 93be
00000030: 382a 913e b988 bfbe ebb5 bb3d 2400 bebd
00000040: e5bf 65be 86ff 1b3e 5efc a2be a161 94be
00000050: 5747 d2be fc16 81be 8603 6cbe 56e6 96be
00000060: cc81 bd3c 56ef 33be ddf2 543d a690 e7bd
00000070: 7877 a03e bf9d 883e 8786 ff3d 8d8d f93d
00000080: 2793 a5be b698 4c3e d0a1 c33e 8a43 2f3d
00000090: f333 c23d cbf2 19be a8ba 0abc eda8 023e
000000a0: c73d 783d 02ae c9be b53f 1dbe a119 71bd
000000b0: de3b 8a3e 5a6b a5be 9013 993d ceb0 173e
000000c0: bad4 c63e e28d 9a3e eb98 6e3c 4497 283e
000000d0: 8b40 7a3e 65ee b0be 8466 7a3c 9f84 3abe
000000e0: 4d63 083e 707f be3d ebdf 87be 18ff f6bd
000000f0: 0134 b33e e9b3 84be 7e17 cabd b986 c93e
00000100: c87a de3d bb10 043e ecec 9b3e 36f6 c43d
00000110: b4c6 173e 14b4 b33e 4b64 ac3e 7e8b 45be
00000120: df47 d0be f7cc 343e 53c8 b2bd a41f cfbd
00000130: bd0b bc3e 2f15 893d aaa5 d9bd fe61 81be
00000140: 1958 c6bd 9d03 693e cd0e b0be 782d 853e
00000150: 44a2 56be 8ac4 c2be 279a 98bd 167e ba3e
00000160: 107c 443e 53a0 c93e db7c 4d3e 0403 8cbe
00000170: a138 8f3d 8b5d 933e e356 bbbe df3d 8b3e
00000180: 5456 b53d 21ae 893e 2f6c 0cbd c008 c43e
0.18447189 -0.24971451 -0.30600327 -0.14074492 -0.07468546 0.086091004 0.40594384 -0.3169722
0.35379034 -0.23319529 0.37523884 -0.28828615 0.28352523 -0.37409 0.091655575 -0.092773706
-0.22436483 0.15234193 -0.31833166 -0.28980735 -0.41070053 -0.25212848 -0.23048219 -0.29472607
0.023133181 -0.17571768 0.051989425 -0.113068864 0.31341147 0.2668285 0.12476831 0.12185202
-0.3233883 0.1998013 0.3820939 0.04278902 0.09482565 -0.15034024 -0.008467354 0.12759753
0.06060579 -0.3939057 -0.15356334 -0.058862332 0.269988 -0.32308465 0.074744344 0.1481354
0.38834172 0.30186373 0.014562826 0.16463953 0.24438684 -0.3455688 0.015283231 -0.18214653
0.1331913 0.093016505 -0.26538023 -0.12060374 0.35000613 -0.2591851 -0.09867762 0.39360598
0.108632624 0.12897007 0.30454195 0.096172735 0.14821893 0.35098326 0.33670267 -0.19291493
-0.40679833 0.17656313 -0.08729615 -0.10113457 0.36727706 0.066934936 -0.10627301 -0.25270075
-0.09684772 0.22755285 -0.34386292 0.26011252 -0.20960337 -0.38040572 -0.07451277 0.3642432
0.19187951 0.3938013 0.2006716 -0.2734605 0.06993223 0.28782305 -0.36589727 0.2719564
0.088543564 0.26890662 -0.03428286 0.38287926

fc2.weight f4 [100, 100]
00000000: 07bf 01bc ba58 6ebd f3e4 edbc a8c1 e3bb
00000010: c57e 393c 0488 6fbd a507 363d cbee 8ebd
00000020: 78f5 ae3a 8361 1bbd abe7 c53d 095b 55bd
00000030: e073 073d ed5b e3bd eed7 c5bc b114 0c3d
00000040: e3d8 8e3c e3a6 afbd 2378 8fbd 3326 793d
00000050: eda8 d33d 5b70 81bd 51ce 96bd 488d 353d
00000060: 4704 2b3c 6990 033d 72ba 63bd d27f 21bd
00000070: df24 bfbd eab0 8d3b 8298 9fbd 81bc 97bc
00000080: e81f 853d 335f 83bd d7a8 b4bd 573d 9b3d
00000090: 4406 90bd 795c 293d 9831 9ebc b27c ae3d
000000a0: 5340 39be 17ed 05bd 4d2f 83bd 17a7 823d
000000b0: 610d 4d3d a66e 63bc fe19 6b3d b497 47bd
000000c0: c27b b4bb 0c61 50bd adf4 bc3d 2f81 9f3d
000000d0: 8bc1 9d3d c5ba b9bd 9caa a23d 3705 babd
000000e0: 2d39 afbc 6309 0a3c b76f 15bd df68 e6ba
000000f0: 3868 ecbc 984a 87bd 97bb 00bd dace 4c3d
00000100: 0165 93bc 4341 723d 1d64 7ebd d0d4 253d
00000110: be9a a33d bd37 013d 09b4 473d 8d85 543d
00000120: e7c9 4e3d e1f2 cbbc acfb 06bd ffef 3d3d
00000130: 73e8 423d 5ec6 b6bd 87ff c3bd cbca 613d
00000140: 0d4a aa3d 18b4 f13a a43e c4bc d437 9fbd
00000150: 73af 903c 9215 a83d 23fd ae3c 420e b3bd
00000160: 9e49 0e3c 324f 39bd 5cf0 9e3b 4a9d 943d
00000170: a11c 36bd d543 c2bb f387 ca3d aa3b 0ebd
00000180: bd0f dabd 9309 85bd 9707 1b3d 4c93 18bc
00000190: 527f 75bd cdd6 92bc 02f6 113c 106f 8e3c
000001a0: 549d 34bd 725e 773d 0fbb e6bb 2de6 04bd
000001b0: a329 4dbd 8280 2bbe c9ba 42bb d77e 8fbd
000001c0: a37a a83d be4b 33bd 6508 283b 412b b9bd
000001d0: f813 8bbd db9a 73bd b81f cb3d 9d1d 113e
000001e0: 9e8f 8a3d 9f55 913d 7e8b 823d 750c 85bd
000001f0: 6e1f 153d 6b03 973d 85c4 7bbd f749 50bd
00000200: 4392 bebc 8173 1bbd f813 563d bf8f 463c
00000210: e7bf e1bb ae98 863c 7a25 103d e45a 763d
00000220: 8932 67bc c14b 29ba 2f7d 9cbd 30d0 a93d
00000230: c32c aa3d a25e a0bd cd09 22bb 22fa bb3d
00000240: f0c5 023c 09b8 c93d 5a14 7bbc 8d8f fb3c
00000250: 7374 9d3d 9909 063d 8186 b6bc da6f 45bd
00000260: 76c5 ac3d 9fc0 36bd f1d5 8c3d 08de 80bd
00000270: 68a6 573d 0497 823a 165b 2dbc 5a11 873d
00000280: 726c 78bc e38a 4bbd dff6 f53d eada 95bd
00000290: 3feb 953d 1f6d 173d 5078 1cbd e141 6bbd
000002a0: 8432 7e3d 775b 51bd 6304 873c ba3e 0d3d
000002b0: 7a0b bcbc c8aa 12bd 18cd b9bd 8da2 ebbc
000002c0: 7b5f 1f3d 3d37 aebd 4592 29bd 4a95 30bc
000002d0: 256d 023d 0e62 a03d f556 f7bb ccb9 e33c
000002e0: ddc6 ae3d 07c7 5c3e 5b9e da3c 3aa6 e0bc
000002f0: b594 203d 359f a23d ee82 c2ba 7097 ffbc
00000300: bed2 1cbd f5a8 68bd c7ff 64bd ce73 ae3c
00000310: 4aae a33d 9706 4e3d 4024 3cbc aff2 57bc
00000320: 8a95 59bd b387 c8bc 0009 6ebd 4aca 7cbd
00000330: c07a b53c 6b5c 99bd 4a01 233d 63ad 98bd
00000340: 00f0 8e3a 00cf 483c 5a0e 6dbd 8d39 77bd
00000350: 50a6 793d c0e8 babd 7b22 b5bd bffe a73d
00000360: 8376 b23d 9a3e 8bbd e05f 4f3d 1f7b cbbd
00000370: c0ee c1bc edb7 31bd 1238 a9bd d7cf 563d
00000380: 4d30 edbb 6d09 50bd 90e0 3cbd 9a17 23bb
00000390: e3b0 2b3d 23b9 74bd 0d6f 14bc 2799 4d3d
000003a0: dde1 b73d c762 c0bc e70b 90bc 20d2 9abc
000003b0: 335d ae3c 6a82 913d ad80 663d fa60 c43c
000003c0: a0a6 c43d 8a6f 8fbd cd88 7e3d 0d01 c4bd
000003d0: 27a6 793d 3538 95bd a092 b3bc 60f9 2e3d
000003e0: 9025 24bd f387 e33c d396 a7bc edac c2bc
000003f0: 9a18 543b f0a3 43bd f7d6 813d 2fa3 ad3d
-0.00791908 -0.058190085 -0.029039836 -0.006950576 0.011321728 -0.058479324 0.044440884 -0.0697914
0.0013348302 -0.03793479 0.09663328 -0.05208877 0.03306949 -0.11101518 -0.024150815 0.03419942
0.017437404 -0.08576753 -0.07005336 0.060827445 0.103349544 -0.06320258 -0.073635705 0.04432419
0.0104380315 0.032120142 -0.05559773 -0.03942854 -0.093332045 0.0043240683 -0.077927604 -0.018522503
0.06500226 -0.06414642 -0.08821266 0.07580059 -0.07032445 0.041347954 -0.019310758 0.085198775
-0.18090944 -0.03269681 -0.06405506 0.06379526 0.050061587 -0.013881361 0.057397835 -0.04872866
-0.005507917 -0.0508738 0.09226356 0.07788312 0.07702931 -0.090688266 0.079426974 -0.09083026
-0.021389568 0.0084250895 -0.036483493 -0.0017578861 -0.02885829 -0.066060245 -0.0314289 0.050001957
-0.017992498 0.05914427 -0.062107194 0.040486157 0.07988499 0.031547297 0.04875568 0.051885176
0.050485518 -0.024896087 -0.032954857 0.046371456 0.047584962 -0.08924554 -0.09570222 0.05512504
0.08314905 0.0018440513 -0.02395565 -0.0777432 0.017661786 0.08207239 0.02136094 -0.08742954
0.008684544 -0.045241542 0.0048504304 0.07256563 -0.044460896 -0.0059284964 0.098892115 -0.03472487
-0.10647533 -0.06495967 0.037849035 -0.009312462 -0.059935875 -0.01792469 0.0089087505 0.017386943
-0.044095352 0.060392804 -0.007041342 -0.032446075 -0.050088536 -0.1674824 -0.0029713383 -0.07006615
0.08226516 -0.043773405 0.002563977 -0.09041453 -0.06790918 -0.059473854 0.09918159 0.14171453
0.06765674 0.07096409 0.06374262 -0.064965166 0.036406927 0.07373699 -0.061466713 -0.05085179
-0.023263102 -0.03795195 0.052265137 0.012119233 -0.0068893316 0.016430225 0.03519199 0.060145274
-0.01411117 -0.00064581266 -0.076410644 0.08291662 0.08309319 -0.0783055 -0.002472508 0.091785684
0.007981762 0.09849555 -0.015324676 0.030708099 0.076882266 0.032723997 -0.022280933 -0.048202373
0.084361 -0.04461729 0.068767436 -0.06292349 0.05264893 0.0009963219 -0.010580799 0.065951064
-0.015162574 -0.049693 0.120099775 -0.07317145 0.0732026 0.0369693 -0.038200676 -0.057435874
0.062059894 -0.05111262 0.016481584 0.03448365 -0.022954691 -0.0358074 -0.09072322 -0.028764034
0.038909417 -0.085066296 -0.04139926 -0.010777781 0.03184237 0.078312024 -0.007548208 0.027798556
0.08534024 0.21560298 0.026686838 -0.027423013 0.039204318 0.079405226 -0.0014840045 -0.03120014
-0.038286917 -0.056801755 -0.05590799 0.021295454 0.079922274 0.050299253 -0.011483252 -0.013180419
-0.053121127 -0.024478769 -0.05811405 -0.061716355 0.022153258 -0.074883305 0.03979615 -0.07454946
0.0010905266 0.012256384 -0.057875015 -0.06035762 0.060949624 -0.09126425 -0.08844467 0.08202886
0.087140106 -0.0679905 0.050628543 -0.09935593 -0.023673415 -0.043388296 -0.08262648 0.052444305
-0.007238424 -0.05079024 -0.046112597 -0.0024885894 0.04191674 -0.059746873 -0.00905968 0.050194886
0.08978627 -0.0234846 -0.0175838 -0.018899024 0.021284675 0.07104953 0.05627506 0.023972023
0.09602094 -0.07003696 0.062142182 -0.09570513 0.06094947 -0.07286111 -0.021920502 0.04271829
-0.040074885 0.027774787 -0.02045766 -0.023764098 0.0032363296 -0.047763765 0.063398294 0.084783904

fc2.bias f4 [100]
00000000: 7b24 21bd aa64 b83d 5ae4 88bd 80cd eabc
00000010: 2268 c8b9 41e0 29bb 06cb 80bd b260 663d
00000020: 2e72 5e3d 45c0 57bd fa1c 6cbd 5b96 143d
00000030: a6e2 8c3c 0b5c c4bc b6b4 fdbc 0b3f b1bd
00000040: 8487 5a3d 345e 813d d408 4cbd 643d ae3d
00000050: 5389 45bd 1621 213d 5583 16bd 571e 1ebd
00000060: 2e19 21bd 4e18 c3bd 8039 b3bd 4b30 b83d
00000070: 8275 b6bd 1adb d2bb f343 81bd a0d1 5a3b
00000080: 4262 5d3d b28a 353b 57dc 253d 114d bbbd
00000090: 22cf c43d 4b59 223d 0b59 943c 1c6f b83d
000000a0: c127 853d 5332 1f3b b50b d3bc c8ab 2f3d
000000b0: 0f02 a93c 27f2 df3c a8cd a03d d27d be3d
000000c0: 6efe 89bd fa7b 17bd a7a8 73bc 1328 6bbd
000000d0: a96f 00bd a675 a03d 1161 5c3d a00f 943d
000000e0: 88b2 c2bd dccf 943d f316 ca3d fb40 bcbd
000000f0: 4236 463d 7065 0f3d 96e1 c1bd d339 2c3d
00000100: f61e 453c a63f c33d 697f 313d e3fe e63b
00000110: 58d3 883d f69b e73c 5568 a6bd f37c 423c
00000120: e1f1 83bd ac6c 40bd 6335 103b bd05 43bd
00000130: 691c 76bd 305a a33d ba10 a1bd ae27 553d
00000140: 8bd1 763d 1f32 9ebd b264 a83d 4cd5 76bd
00000150: 33a8 4b3d c005 7ebd bf88 813d 01e4 be3d
00000160: 5272 8d3d 7c89 12bd 1496 f0bc 54ba b63d
00000170: de14 993c 12a4 8cbc 0712 843c 3920 55bd
00000180: 6727 b13d 52c3 9a3d dda1 f93c ade6 0bbd
-0.03934143 0.09003575 -0.066841796 -0.028662443 -0.00038224558 -0.002592102 -0.06288724 0.05624456
0.05430811 -0.052673597 -0.05764482 0.036276203 0.017197918 -0.02396967 -0.030969959 -0.086546026
0.053351894 0.06316796 -0.049813107 0.08507803 -0.048226666 0.039338194 -0.03674634 -0.038603153
-0.039330654 -0.0952612 -0.08751202 0.08993586 -0.089091316 -0.0064348103 -0.063117884 0.0033389106
0.054048784 0.0027701077 0.040493336 -0.091455586 0.0960982 0.039635938 0.018108865 0.090055674
0.06501723 0.002429147 -0.025762418 0.042888433 0.020630864 0.027337147 0.07851726 0.09301342
-0.06737982 -0.036983468 -0.014871753 -0.057411265 -0.031356487 0.0783494 0.053803507 0.07229543
-0.095067084 0.072662085 0.098676585 -0.091920815 0.048391588 0.035008848 -0.09466855 0.042047333
0.012031307 0.09533624 0.0433344 0.007049428 0.066809356 0.02827261 -0.081253685 0.0118706105
-0.06442619 -0.046978638 0.0022004477 -0.047612894 -0.060085688 0.07976186 -0.078645185 0.052039795
0.06025843 -0.077244036 0.08222331 -0.06026201 0.049720954 -0.062017202 0.0632491 0.09320832
0.069065705 -0.035775647 -0.029368438 0.08922258 0.018686708 -0.017168079 0.016121877 -0.052032683
0.086500935 0.07556786 0.03047269 -0.034155536

fc3.weight f4 [3, 100]
00000000: 9351 9ebd 9402 bd3d 9b8c abbd 5389 8e3d
00000010: 23f5 18bd 1029 993d 2d72 e3bd cb5a 303d
00000020: 376c 6cbc 8b53 a9bc 2d3c 6fbd e668 1bbd
00000030: 5692 0cbd 34d5 b23d 2cab 62bd 41fa 41bd
00000040: 88de a43d b020 47bb decb d93d 7df8 203d
00000050: fe38 5fbc 89dd 37bd fa64 0cbd 5acf 82bc
00000060: 15bc 86bd 6201 91bc 9a3c 04bb 4eb7 fa3c
00000070: 030e 10bd 1325 57bd a023 48bd b278 dbbc
00000080: 2069 233d b3a6 543c ff8e a6bc 5e09 873c
00000090: 5e60 a73d 5167 9a3d f0b5 893d dc46 05bd
000000a0: dfbe 4ebc 1ee3 883d 7b13 c1bd 34e4 88bd
000000b0: b84c c6bd 4482 383d b066 2abd 39d1 b43c
000000c0: 9a8d a9bd e4ac 913d 4adc aabd 0d48 883d
000000d0: 28b9 bbbd 32d0 9b3b b864 573c 0c03 763d
000000e0: d3c0 063e 1af1 2dbc 1e86 7ebd 7300 a33d
000000f0: 15f8 1cbd 17cf 2fbd 846f 6fbc 253d a4bd
00000100: b7a8 823d 0980 8d3d a377 853d 2f9d 14bd
00000110: 715c 2ebd 3613 abbd 8a53 b1bd a73f 6a3d
00000120: c190 2e3d 4894 c83d 7db7 773d 9757 03bd
00000130: fecc 2a3d 7df3 92bd 74dd abbc 1186 8dbc
00000140: d506 a9bd 178e 0cbc 18b1 a4bd c499 d5bd
00000150: 0704 b1bc aaf6 663d 0efd 583d f655 173d
00000160: 173a 84bc 0a1b b3bc 86df abbd e619 ebbc
00000170: 1d77 323d 1fda cabd 43cb 8dbd 3b3b f53d
00000180: 1e06 abbb 00f0 e6bc f86f 1bbd 1949 b3bd
00000190: 18ac b4bd 80db cabc 6dbe 313d ed91 053d
000001a0: f2fb 8a3d e1f5 8cbd 929c 3d3c 7b4e 6b3d
000001b0: e8b7 933d 9712 e33c 832f c8ba 30f2 49bd
000001c0: 6e95 b63c de96 62bd 0f07 6fbd 52b8 e43c
000001d0: e14e b7bd ffb8 afbd 5680 d33c fcf7 713d
000001e0: 434f ce3b c912 b73b 600d 9ebd ab1b 9bbd
000001f0: 9e45 49bc ee89 893d 5a80 a43c c971 0dbd
00000200: b2dc 9e3d eadd 00bd 233a 32bd 8f46 2fbd
00000210: f4cd 80bd 3726 a9bd 8692 563d 005b 32bd
00000220: a06e 9d3c 45de 863d 3f91 8dbd 46df ddbc
00000230: 1cfc 38bd af36 363a c0b0 9cbd d87c 593c
00000240: a19a c23d 64f5 4c3c 7070 90bd abf1 aabd
00000250: ab59 923d 8f75 1f3c eae4 c1bd 6259 a33d
00000260: d340 a8bd c913 37bd fe94 5bbc d5d8 bcbd
00000270: a392 2b3c f5e5 c9bd fe08 89bc ca59 a5bd
00000280: 7452 473d 0019 3d3d 3905 41bc 023a af3d
00000290: a2f7 b5bc f06b 82bc ce80 ea3b 83eb 9cbd
000002a0: a93e a4bd 6485 103c 6036 81bc 46ad 913d
000002b0: ae98 d2bd 440d ab3c ecdb cbbc b7eb 9bbd
000002c0: 3ace c4bd 3344 dcbc 978d b4bb 951c 823c
000002d0: dc98 08bd c4f8 a7bc 97b5 83bd 8e45 c4bc
000002e0: a424 ad3d e28a afbd 5424 bfbd c66d 6a3d
000002f0: 9f85 bfbd 113e 8e3d a1f1 ce3d 6fa3 c93d
00000300: 04c7 1dbc 8ae1 f2bc 70be 54bd dd34 e1bc
00000310: 16c3 9fbc 5eab 3e3c 3378 33bd 01b4 4fbd
00000320: 24d8 e8bc 1ce4 aa3d 9a4c 003d 97bb 9c3d
00000330: 18b7 c83d d9cf 833d e008 8e3d 19b6 573d
00000340: 5af8 ab3d f434 1dbd 1561 59bd 8e15 e3bd
00000350: 4ba3 013d 9d8f 5f3c 39bb 62bd ce56 ae3d
00000360: be8c 1cbd f49d b2bd 3eda 74bd 25a0 a6bd
00000370: 1d82 c3bd dccf f83b 7f95 78bc f3a7 93bd
00000380: 738d c73d e4ef e63d 7279 99bd 2427 5dbd
00000390: 5f1b 8d3d 0d8b e3bc 1ad7 c33d 26ec ab3d
000003a0: 7b56 823d 3732 f2bd bfea a3bd c325 b7bd
000003b0: 03f8 183c d670 573d 4fcc 743c eefb b93d
000003c0: 8175 b4bd 23a8 bf3d 3d9a a3bd 4a97 bc3c
000003d0: 2c09 09bd dcd2 8fbd 4214 06bd a410 37bd
000003e0: 5422 563d dfac ea3a 7a69 d0bc 43d8 05bd
000003f0: f2c6 973d 1d28 e9bc 519c b43d 8e98 20bc
-0.07730403 0.09229007 -0.08376428 0.06959786 -0.037343156 0.07478535 -0.11105762 0.043055337
-0.014430097 -0.02066972 -0.058406997 -0.037941836 -0.034319244 0.087320715 -0.055339023 -0.0473578
0.08050257 -0.0030384474 0.10634588 0.039299477 -0.013624428 -0.044889007 -0.034275986 -0.015968014
-0.065788426 -0.017700855 -0.0020177723 0.030604985 -0.035169613 -0.05252559 -0.0488621 -0.02679095
0.039895177 0.012979197 -0.020331858 0.016483959 0.081726775 0.07539237 0.06724155 -0.03253828
-0.012618749 0.06683944 -0.09427544 -0.06684151 -0.09682602 0.045046106 -0.041601837 0.022072421
-0.082789615 0.071130544 -0.08342798 0.066543676 -0.09166175 0.0047550434 0.013146572 0.0600615
0.13159494 -0.010616565 -0.062139623 0.0795907 -0.038322527 -0.042922106 -0.01461399 -0.08019475
0.06379836 0.069091864 0.065169595 -0.036282714 -0.042568628 -0.083532736 -0.08658512 0.05718961
0.042618517 0.097939074 0.060477722 -0.032065954 0.041699402 -0.07175348 -0.02097962 -0.017275842
-0.08253256 -0.008578799 -0.080415905 -0.10429719 -0.021608366 0.05638758 0.052975707 0.036947213
-0.01614098 -0.02186348 -0.08392243 -0.028698873 0.043570627 -0.099048845 -0.06923535 0.11974188
-0.005219235 -0.028190613 -0.03794858 -0.08754177 -0.08821887 -0.024762869 0.043394495 0.03260987
0.06786336 -0.06882835 0.011572974 0.05744789 0.07212812 0.027718825 -0.0015272949 -0.049303234
0.02228805 -0.05531966 -0.05835634 0.027919922 -0.08950592 -0.08580207 0.025818031 0.059074387
0.00629607 0.005586956 -0.07717395 -0.075736366 -0.012284664 0.06715761 0.020080734 -0.034532342
0.07756938 -0.031461634 -0.043512475 -0.0427919 -0.062892824 -0.08259242 0.05238583 -0.043543816
0.01921779 0.06585363 -0.06912469 -0.027084004 -0.045162305 0.00069508975 -0.076509 0.013274394
0.095021494 0.012509678 -0.07052696 -0.08346876 0.07146009 0.009732618 -0.0946749 0.07976033
-0.08215489 -0.044696603 -0.013402222 -0.09221045 0.010471973 -0.09858314 -0.01672792 -0.080737665
0.048662618 0.04616642 -0.01178103 0.08555986 -0.022212807 -0.01592061 0.007156468 -0.07662108
-0.08019764 0.008820865 -0.015772998 0.071131274 -0.102830276 0.020880349 -0.02488514 -0.076133184
-0.09609647 -0.026887989 -0.005510043 0.01588277 -0.033348903 -0.020504363 -0.0643112 -0.023958948
0.08454254 -0.08571412 -0.09333101 0.057233594 -0.09351658 0.06945432 0.10104681 0.098456256
-0.009629969 -0.029648561 -0.051939428 -0.027491027 -0.019502204 0.011637537 -0.043815803 -0.050708774
-0.028423376 0.0834429 0.031323053 0.076529674 0.09800547 0.06436128 0.069352865 0.052663896
0.08396979 -0.03838058 -0.0530711 -0.110880956 0.03164987 0.01364508 -0.05535433 0.085126504
-0.03822016 -0.087215334 -0.059778444 -0.08136014 -0.095463015 0.007593138 -0.015172361 -0.07209768
0.09743776 0.11276224 -0.07493867 -0.053992406 0.06889986 -0.027776266 0.09562512 0.08394651
0.06364151 -0.11825984 -0.08003759 -0.08942749 0.009336474 0.052597843 0.014941289 0.09081255
-0.088114746 0.093582414 -0.07988403 0.023021359 -0.033456013 -0.0702264 -0.032734163 -0.044693604
0.05227883 0.0017904303 -0.02544092 -0.032676946 0.07410993 -0.02846151 0.088188775 -0.009801997

fc3.bias f4 [3]
00000000: 3eaa 023d 1c4f 383d 55c9 06bd
0.031900637 0.04499732 -0.03290685
