model/trained_model/model.pt (torch, 46836 bytes, 6 tensors)

fc1.weight f4 [100, 6]
000000 ec 11 50 be 22 fb c6 3d 11 7e 45 3e 33 bf 88 3e
       -0.20319337 0.097158685 0.19286372 0.26708373
000010 2d 71 69 3e a8 ac 23 3e 94 e2 59 3e e8 cc 81 be
       0.2279708 0.15983832 0.21277839 -0.25351644
000020 8a 62 b0 3d 27 f2 23 3d 00 5e b5 3e 0c b3 3e 3e
       0.08612545 0.040025856 0.3542328 0.18622988
000030 a4 74 7f 3e 29 38 d0 bc e7 cb c5 bd 39 8c 89 be
       0.24946839 -0.025417404 -0.09658032 -0.26864794
000040 02 8a db be d7 78 24 be de f2 84 3e a8 c8 1a 3e
       -0.4287873 -0.16061722 0.25966543 0.15115607
000050 6f 7c 3b be ff 33 a7 3e 91 e6 9f 3e 20 8e 07 be
       -0.18309186 0.32656857 0.31230596 -0.1323781
000060 5e 5a b5 bd c0 2f 9d be cd 8e 88 3e 71 7a a1 be
       -0.08855127 -0.30700493 0.26671448 -0.31538728
000070 d9 6c 87 be 4c 9d 30 3e 55 6e 69 3e d8 6e 09 be
       -0.26450232 0.17247504 0.22795995 -0.1342119
000080 bd 26 c3 3d b1 78 4d be 9b 25 5e be 0a 09 3b be
       0.09528873 -0.20065571 -0.21694033 -0.18265167
000090 b2 86 32 bd c2 51 af 3d b2 c8 a7 be e1 ed aa be
       -0.043585487 0.08560516 -0.32770306 -0.33384612
0000a0 d9 91 da bc 79 21 18 3e f0 c5 df 3a ce c2 df 3e
       -0.026680874 0.14856519 0.001707254 0.43703312
0000b0 92 2a 98 3d 83 3e 5c 3e 4e c8 d8 3d b1 79 8a bd
       0.07429995 0.21508221 0.1058508 -0.06761492
0000c0 b7 40 dc bd db a4 e2 bd 92 9c 07 bf 80 ef bc 3e
       -0.10754531 -0.110666 -0.5297328 0.36901474
0000d0 d0 59 da bd 5a ab 8c 3e 62 7e da bd 91 86 b6 be
       -0.106616616 0.2747448 -0.10668637 -0.3564954
0000e0 2f 27 9e 3d c2 10 fa 3d 24 73 9e 3e 56 8c 66 3d
       0.077223174 0.122102275 0.3094722 0.05628618
0000f0 b2 9d 67 be 23 09 09 3d fe 27 21 be 85 f6 b8 bd
       -0.2261875 0.03345598 -0.15737912 -0.09031395
000100 62 fe 55 3e 14 62 e1 3d 10 cc 13 3e e7 26 c6 bd
       0.2089782 0.11005035 0.14433312 -0.09675389
000110 8a a4 67 3e 27 fb 70 3e 98 95 da 3d e7 70 4e be
       0.2262136 0.23533307 0.10673064 -0.20160256
000120 7d e5 b3 3e 8a ae dc 3d 92 c0 aa 3e 64 ea 38 be
       0.35136023 0.10775478 0.33350044 -0.18058163
000130 71 99 76 3d 11 92 e0 3d dd 1c 89 3e d2 91 b5 3e
       0.060204927 0.1096536 0.26779833 0.35462815
000140 c8 a6 90 bd 48 eb c2 be 8c 10 38 bd ee f0 30 bd
       -0.07063061 -0.3807013 -0.044937655 -0.04319852
000150 82 ca 4b 3e 91 38 c1 3e fa 0f 1c bd a5 b6 27 be
       0.1990147 0.3773847 -0.038101174 -0.16378267
000160 e7 23 8f 3d 67 49 9a 3e 52 be 80 be 00 47 79 3e
       0.0698927 0.30134127 -0.25145203 0.2434349
000170 85 71 97 be 5d d5 a7 be 53 3b e9 bd 7a 90 58 3e
       -0.29578796 -0.3277997 -0.11388268 0.21148863
000180 cb 65 c6 be 40 88 a0 3e 08 2c 14 be 20 d2 df 3d
       -0.38749537 0.3135395 -0.14469922 0.1092875
000190 a6 b7 96 be 15 f1 ad 3d 94 20 02 bd 8a 32 e9 be
       -0.29436988 0.084932484 -0.03176935 -0.4554637
0001a0 66 6d 9a be 97 3e 9a bd f8 c6 b6 be 2f 8d 2f bd
       -0.3016159 -0.07531469 -0.35698676 -0.042859253
0001b0 f1 71 f1 3d 00 8f 99 3e d6 47 3c bd 21 24 ee 3b
       0.11789311 0.29991913 -0.045966946 0.0072674905
0001c0 60 f5 2b be 4e 1b 27 be 9d c0 88 be 13 93 d0 be
       -0.16792822 -0.1631901 -0.26709452 -0.4073721
0001d0 14 23 24 be 5f 47 32 be be 1d 9a be 5e 95 cb 3d
       -0.16029006 -0.17410038 -0.30100816 0.09940599
0001e0 3a 9d ba bd d4 6d c6 3e 84 fb 8e bd 2f 82 fb bc
       -0.0911202 0.38755667 -0.069815665 -0.030701725
0001f0 13 55 27 3e 63 e4 e0 bd f0 7a db bd 0a 69 7d 3e
       0.16341047 -0.10981061 -0.10716808 0.247471
000200 6f c4 87 3e 7b 94 ac bd b2 ca 8a be ed 4a a1 be
       0.26517054 -0.08426758 -0.2710777 -0.31502476
000210 26 b0 5c be 81 2a b6 3e e1 30 a9 3e 18 da ea bd
       -0.2155157 0.35579303 0.33045104 -0.11467379
000220 75 55 65 be dc 26 d2 3e 0f 1b 65 3e 1a 68 a2 3e
       -0.2239588 0.41045272 0.22373603 0.31720048
000230 7c 26 9d 3d eb 8f b1 bd 1f 30 7c 3e 35 6c d5 be
       0.07673356 -0.08670028 0.24627732 -0.41684118
000240 0e c1 f7 3b 3a e7 41 bc 8d ab 10 be d0 8a 9d 3e
       0.0075608557 -0.011834914 -0.14127941 0.30769968
000250 71 1c a8 3e d4 06 52 3c af 5b cc 3e 7c 26 e1 3e
       0.328342 0.012819011 0.399137 0.43974674
000260 dd f4 b9 be 02 fe 1a 3e 3d b2 ed bd 1a 98 85 3e
       -0.36319628 0.15135959 -0.11606262 0.26092607
000270 ba a2 91 bc 9f b8 9c 3e 1b 1f 35 3e 2d 29 b2 3e
       -0.01777779 0.30609605 0.17687647 0.3479704
000280 0e 32 73 3e e8 eb a7 3e c9 68 a5 bd 1c ad ac 3e
       0.23749563 0.3279717 -0.08076627 0.33725822
000290 3b 68 ba 3e 83 ef 53 3e 2d 45 9e 3d 03 fb c8 3d
       0.36407647 0.20696835 0.07728038 0.09813502
0002a0 29 0e 13 be 84 eb ba bd 2e ac 50 3d 25 35 23 3e
       -0.1436087 -0.09126952 0.050945453 0.15938242
0002b0 08 98 c9 3d 0c c1 d1 3e c8 4e 15 be 4c 91 2c bd
       0.09843451 0.40967596 -0.14580834 -0.042130753
0002c0 57 89 03 bd 60 53 d7 bb 99 7f 92 3e a1 78 f6 3d
       -0.0321134 -0.0065712184 0.28612974 0.12034727
0002d0 ca 4e b6 3e c8 51 76 bd 2b 9e 3b bd 57 a4 5f be
       0.35606986 -0.060136586 -0.045805138 -0.21840034
0002e0 b6 51 9a be ca 01 bb be d4 05 8f be bb 4f 9e 3e
       -0.30140465 -0.36524802 -0.27934134 0.30920205
0002f0 c2 ee a3 be fa b9 92 be 0a db 96 be 3e 91 57 bd
       -0.32018095 -0.28657514 -0.2946399 -0.052628748
000300 c6 83 a9 3e f5 07 df bc 9e 1e a6 be a3 70 0c bd
       0.33108348 -0.027225474 -0.32445234 -0.034287106
000310 8a 2c 4e 3e 6e e4 a3 be 33 41 1a be 04 bd d4 bd
       0.20134178 -0.32010216 -0.15063934 -0.10387614
000320 32 e0 0a bf 3b f7 c9 3d c7 9e 92 3d de b3 82 3e
       -0.54248345 0.098616086 0.071591906 0.25527853
000330 e0 94 7a 3e 1c d8 a6 be 7f 74 a9 3c b5 05 02 3d
       0.24470854 -0.32586753 0.020685432 0.031743724
000340 19 fb d5 be 8c c1 12 3e 73 ab 5c be 10 49 6f bd
       -0.41793135 0.14331645 -0.21549778 -0.058419287
000350 05 46 81 bd 28 12 d3 3e 9e 45 4d be 8d 4f 40 be
       -0.06312183 0.4122479 -0.20046088 -0.18780346
000360 4f 84 4d be 29 35 15 be 3f 90 a2 be 58 f0 45 be
       -0.20070003 -0.1457106 -0.31750676 -0.19329965
000370 e8 1e 98 be 5c 16 41 3e b6 86 6e 3e 98 24 a8 be
       -0.2971108 0.18856186 0.23293576 -0.3284042
000380 e1 7d 38 be bb 07 1d be dc 35 85 be 2c 15 b8 3e
       -0.18016769 -0.1533498 -0.26017654 0.35953653
000390 55 07 2e be 53 48 81 be e1 89 3c bd b6 ba 84 be
       -0.16994984 -0.25250491 -0.04602993 -0.259237
0003a0 d1 9b cc 3e 5a 6c dd 3e 0e 75 e9 bd 1c bc 0a be
       0.39962628 0.43246728 -0.113992795 -0.1354832
0003b0 1b 70 a7 3d b2 ca 0e 3e e7 01 c1 be 4c 47 60 bd
       0.08175679 0.1394451 -0.37696764 -0.054755494
0003c0 ce 7d c7 3e 5c 56 51 3e df 65 a7 3c 9e 6c 23 bd
       0.3896317 0.204431 0.020434318 -0.039898507
0003d0 c3 8f a6 3e a0 8f 29 bd ff b0 c6 3e 64 3a 0d be
       0.32531556 -0.041396737 0.38806912 -0.13791806
0003e0 12 9b ba be 06 3e 70 bc 2d f0 ab be 44 8a 82 be
       -0.36446434 -0.014663225 -0.33581677 -0.25496113
0003f0 48 f1 24 3e 59 90 a5 bd 81 4e 2b bd 01 94 a4 3e
       0.16107666 -0.08084173 -0.041822914 0.32144168

fc1.bias f4 [100]
000000 ed 2a 35 be d4 32 1c 3e 69 f5 8b be 9a a2 dd 3d
       -0.17692156 0.15253764 -0.2733567 0.108220294
000010 69 b9 4b 3e cd 97 3f 3c 06 9b 22 be d8 4c 13 bd
       0.19894947 0.011693907 -0.15879449 -0.035961956
000020 b3 8a 45 be 80 2b ff 3c 06 b2 0b 3b 65 49 f5 bd
       -0.19291191 0.031148672 0.0021315827 -0.119768895
000030 61 db 98 bc 06 6c 23 be 76 97 e8 bd 2f 91 f8 3d
       -0.018659296 -0.15959176 -0.11357014 0.121370666
000040 a1 05 6e 3e 44 11 95 be 01 d9 cf be 17 c0 45 bd
       0.23244335 -0.29114735 -0.40595248 -0.048278894
000050 81 88 19 3b 05 c5 68 3e b8 18 ef ba 25 4e c7 3d
       0.002342731 0.22731407 -0.001824162 0.09731702
000060 5d 6f 4c be b2 aa f8 bc 22 de bc be 86 65 76 be
       -0.19964357 -0.030354831 -0.36888224 -0.24062166
000070 72 0a 9f be ee 13 64 3e 50 28 c1 be 8b 78 2f 3e
       -0.31062657 0.22273228 -0.37726068 0.17135827
000080 72 85 8f 3e 9f 12 ed 3d ec 1f 37 3d eb eb 62 bd
       0.28031498 0.11575817 0.044708177 -0.05540077
000090 7a e9 3c 3e ca 0e 8b 3e 69 b3 62 be 90 a9 47 3e
       0.18448439 0.2715972 -0.22138752 0.19498277
0000a0 56 84 44 3e fe 80 32 3d c7 dd ce 3d bc e8 b2 3e
       0.19191107 0.043580048 0.101008944 0.34943187
0000b0 f1 ea 63 be f5 6e ad 3e 2e 89 6e 3e 13 22 0d 3e
       -0.22257592 0.33873716 0.23294517 0.1378253
0000c0 7b 9e 34 be 9b d3 e3 3e 97 f4 97 3e cd 1a be be
       -0.1763858 0.4449738 0.29678795 -0.37129822
0000d0 2c b0 c6 be 76 b8 a1 3e 8c 59 1a 3e 6c b4 ef 3c
       -0.38806283 0.31586045 0.15073222 0.029260837
0000e0 e1 58 c8 be 45 81 76 be 28 57 0c bd 48 5f c0 be
       -0.3913031 -0.2407275 -0.034262806 -0.37572694
0000f0 41 e7 7f 3e d0 c8 16 3e 84 6f e6 bd 15 cc 13 be
       0.2499056 0.14725041 -0.11251739 -0.1443332
000100 9f bf cf 3e dd d5 d9 3d 7a 54 3e bd 51 04 bf 3e
       0.40575883 0.10636494 -0.046467282 0.3730798
000110 cf d6 76 3e 78 b6 42 be f8 66 42 be da 25 36 be
       0.2410538 -0.19014919 -0.18984592 -0.17787877
000120 c6 ba 37 be ab 8c b3 3e ef 46 af 3e d4 0e 8a bd
       -0.17942342 0.3506826 0.34233806 -0.067411095
000130 1a 9d 36 3e 0d d5 07 3e e9 56 75 be 8f 31 6e 3e
       0.17833367 0.13264866 -0.23958935 0.23261093
000140 ed ca db 3d d9 c4 54 be 0f 64 b0 be 60 66 b7 3e
       0.107320644 -0.20778216 -0.3445134 0.35820293
000150 80 e2 b3 be d8 d2 2b be 18 ca c3 bd 40 52 2b 3d
       -0.35133743 -0.1677965 -0.09560031 0.041826487
000160 e5 22 3e be b6 4d d7 be d2 6a 37 3e 86 63 8f 3e
       -0.18567999 -0.42051476 0.17911842 0.28005618
000170 23 e5 42 be 02 71 b1 bc f7 27 2c bc f7 e9 b4 3d
       -0.19032721 -0.021660332 -0.010507575 0.08833688
000180 9e f4 c9 3e 26 86 8b 3e d7 ba d7 3c ca b1 2d 3e
       0.3944444 0.27250785 0.02633421 0.16962352

fc2.weight f4 [100, 100]
000000 dd 76 48 bd 3e 22 90 3d 30 54 7b be 6f ad b8 3d
       -0.04894148 0.07037781 -0.24543834 0.09017455
000010 d3 db c2 3d c6 78 91 bc fe 04 5d bd 66 6f b6 bd
       0.095145844 -0.017757785 -0.05395984 -0.08907966
000020 85 92 92 3d 0d b1 3e 3d 1c 29 0b be ba ec fd bc
       0.07156853 0.046555568 -0.135899 -0.03099667
000030 ab df 42 3d df dc 28 bd 61 41 cf bc 1d f3 b1 3d
       0.047576588 -0.041226264 -0.02529973 0.08688948
000040 5b ad 19 3d b1 16 3a be 9d 04 0b 3d 6c 1d 1e 3d
       0.03751884 -0.18172719 0.033939946 0.038602278
000050 1f a2 be 3b de 63 77 3d 10 0c 43 bd f4 8b ae bd
       0.005817666 0.060397975 -0.047618926 -0.08522788
000060 55 0a 31 bc 38 8a ba 3a ff 5d e9 3b 46 6a de 3d
       -0.010805686 0.0014231866 0.007121801 0.10860114
000070 55 98 87 3e 45 e7 9e 3b 4e 99 29 bd 85 d5 b5 bd
       0.26483408 0.004849347 -0.04140597 -0.08878616
000080 48 77 10 3a ed 1f 9c 3d 4c 63 76 bc b6 d3 42 3c
       0.00055109384 0.07623277 -0.015038323 0.011891296
000090 5a 88 5a bd 87 df d9 bc 2f b6 28 3e 0a 0b 2e bd
       -0.05335269 -0.026595844 0.16475748 -0.042490996
0000a0 63 ff 75 3c 09 2c ea bc 43 a2 55 3d c5 c2 a6 bd
       0.015014502 -0.02858545 0.052156698 -0.08142618
0000b0 91 74 5d bc 58 68 d3 bd 49 74 75 3d 77 e8 83 bd
       -0.013516561 -0.10322636 0.05992535 -0.064408235
0000c0 df 81 a6 3d 73 83 b4 bd a3 23 cd bd b3 83 eb bb
       0.0813024 -0.088141344 -0.10016563 -0.0071873306
0000d0 eb 8c 3b bd 66 91 24 3d 98 1c 0d be 70 c2 ae 3d
       -0.045788687 0.040177725 -0.13780439 0.0853318
0000e0 a5 4f c2 bd 81 f9 33 be fa 92 94 be 9a 3d 5c 3d
       -0.09487847 -0.17575647 -0.29018384 0.053769685
0000f0 84 3f 63 3d 55 82 51 3d 04 c8 79 3d e9 38 c5 3a
       0.055480495 0.051149685 0.060981765 0.0015046868
000100 aa fc e7 bd 16 3e dd bd ed 70 a1 3d e5 4e 71 bd
       -0.11327489 -0.108028576 0.07882867 -0.05891313
000110 b0 e8 06 bd 33 df c8 ba 74 7a 40 bd 0c 0d bf 3c
       -0.03293675 -0.0015325308 -0.04699178 0.02332165
000120 67 8d af 3d b1 37 1b bd 06 d1 b7 b9 6b ce 76 bd
       0.08571892 -0.03789491 -0.00035060215 -0.06025545
000130 db 47 30 3d d2 a5 b2 3c 44 d9 5a 3d 54 b9 2e 3d
       0.043037277 0.021807585 0.053429857 0.04265721
000140 f1 d7 2c 3e 25 c8 06 3e 27 9b db 3c 47 b1 8f bd
       0.1687925 0.13162287 0.02680738 -0.07016235
000150 b7 cd a8 bd b3 e4 81 be f4 15 a3 be ba 4e ea 3d
       -0.08242362 -0.25369796 -0.31852686 0.11440797
000160 12 b4 8b bd c0 97 b2 3d db ca 4e bd 11 f8 c2 3d
       -0.06821455 0.0872035 -0.050486427 0.09519971
000170 4d 58 2d 3d e3 02 c4 bd e8 d1 bb 3d 4f fa e8 3b
       0.04232054 -0.09570863 0.09170896 0.0071099172
000180 27 cc 95 3d 90 9d d5 bc 3c 30 9a 3a 6e a4 55 3c
       0.073143296 -0.026076108 0.0011763643 0.013039691
000190 69 25 42 3d 31 c1 44 ba b7 40 c5 bc d7 86 2e bd
       0.04739896 -0.00075055944 -0.02407871 -0.042609062
0001a0 9f 81 5d 3d 0a 06 2a bd a5 12 05 3e c2 78 ac 3d
       0.054078694 -0.041509666 0.12995394 0.0842147
0001b0 43 e9 5f bc a5 6a 63 3d ac 22 97 3d 25 87 91 3b
       -0.013666454 0.055521626 0.0737966 0.0044411593
0001c0 18 71 b5 bd 61 3f 8f bc 22 67 1a 3d 61 2b a0 bd
       -0.088594615 -0.017486276 0.03769601 -0.07820774
0001d0 02 38 0b bd 40 ab 83 3d b0 65 21 3d a2 7c 53 3b
       -0.03398896 0.06429148 0.039403617 0.0032270332
0001e0 9d fc eb 3d 74 e7 5f 3d 87 34 b0 bd fc ee b1 3c
       0.115227915 0.05466409 -0.08603769 0.021720402
0001f0 e5 be 53 bd f5 e5 49 bd 06 53 9a 3d d6 2f 33 3d
       -0.051695723 -0.04929157 0.07535367 0.04374679
000200 83 1d 04 3c 64 bc a0 bd 0c b5 b2 bd 49 a6 b0 bd
       0.008063677 -0.07848433 -0.08725938 -0.086254664
000210 3b 0b a0 bd f2 38 d5 bd 9f 04 96 3d 68 fd 83 3c
       -0.07814642 -0.10411252 0.073251 0.016112044
000220 1d d1 9c bd a2 7c b2 bd 03 b0 4c 3d 91 70 66 3d
       -0.07657073 -0.08715178 0.049972545 0.056259695
000230 82 dc 2c bd 12 8e 32 3d 20 76 fc bc f0 45 5b bd
       -0.04220248 0.04359252 -0.030818045 -0.053533494
000240 25 f3 2f 3d 76 d4 8b 3d a4 c8 6f 3d ef 6a 80 3d
       0.04295649 0.06827633 0.058540955 0.06270396
000250 c5 c0 c2 bd 9d e7 89 bd e5 a1 86 3d c3 ca ae bd
       -0.09509424 -0.0673363 0.06573848 -0.085347675
000260 53 71 8f bd 5b cb ba 3d 81 40 60 3d a4 a2 5a bd
       -0.07004037 0.09120818 0.054749016 -0.053377762
000270 b2 d0 84 3d 98 45 0d 3e 14 24 9f bd c2 19 99 3d
       0.06485118 0.13796079 -0.07770553 0.07475616
000280 07 9f 70 bd 39 40 96 3d 02 bb af 3c b1 86 aa 3b
       -0.05874541 0.07336468 0.021451477 0.0052040447
000290 bb c6 96 bc f4 1b 66 bd 41 93 ad bd 23 d1 4c 3d
       -0.018405309 -0.056179002 -0.08475352 0.050004136
0002a0 c2 cc 2e bd 70 60 79 3d 56 57 d7 3c 9c 5f a3 3d
       -0.04267574 0.060882986 0.026286762 0.079772204
0002b0 1e 7b 7b 3d eb e1 86 3c 3b b3 4e bd 93 47 29 3d
       0.06139671 0.016465148 -0.050463896 0.041328024
0002c0 a5 37 0c bd 00 34 5f 3d f5 06 48 bd 84 3b 34 bc
       -0.034232754 0.05449295 -0.04883476 -0.011000518
0002d0 50 b9 aa 3d fe 12 13 bd 8d 00 3b bd 40 8e 04 bd
       0.08336127 -0.035906784 -0.045654822 -0.032362223
0002e0 c7 50 1a bd 7c 87 78 bb 9e 1c ae bd 97 10 65 3d
       -0.03767469 -0.0037922552 -0.08501552 0.055924024
0002f0 45 40 a6 bd 33 55 a0 3b 73 a8 92 bc a9 74 b4 3d
       -0.08117727 0.004892969 -0.017902588 0.08811314
000300 8f a8 d5 bc 3b 34 97 3d 2f d7 a1 3d 0b f7 c3 3c
       -0.026081352 0.07383009 0.07902371 0.02392151
000310 bf 08 c5 3d 7d 45 19 bc 24 14 b2 bd b2 c2 86 3d
       0.09620809 -0.009354946 -0.08695248 0.06580104
000320 cd 75 30 3d 27 8c 72 3c 2f c3 50 3e 94 94 59 bb
       0.043081094 0.014803923 0.20386957 -0.0033200132
000330 82 bd 21 3d 60 a7 8f bd d1 c1 be bd c7 7e 2f 3d
       0.03948737 -0.07014346 -0.09314311 0.042845514
000340 b6 e5 02 bd 72 3c d2 bc bd 7c 8e bd 6f 85 60 bd
       -0.03195735 -0.025663588 -0.06957386 -0.054814752
000350 55 0b ad 3d aa 89 33 bd 62 54 58 3d 9c 77 78 bc
       0.08449427 -0.04383246 0.05281485 -0.015165236
000360 34 f6 c2 3c bb 9b 22 3e 6f ef 82 3d 40 b6 26 bc
       0.02379904 0.15879719 0.063933246 -0.010175288
000370 83 88 c7 3d 45 3d ad 3d 29 d3 44 3d 3f f1 76 3d
       0.097428344 0.08458952 0.04805294 0.060288664
000380 d5 ae f4 3c 56 2f 33 3d 1f 41 2b 3d 04 a3 47 bd
       0.029868523 0.043746315 0.04181015 -0.04873945
000390 3e b2 f1 bd bf 45 c2 3c 8b fb d9 3c a2 d4 2c bd
       -0.11801575 0.023714898 0.026609203 -0.04219497
0003a0 c9 03 62 bd d1 b8 8d bd 07 03 ea bd 04 b9 42 3e
       -0.05517939 -0.069200166 -0.11426359 0.1901589
0003b0 77 ed 89 bd 16 fd 44 bd 08 2a 4e 3d ec 05 8c 3d
       -0.06734746 -0.048092924 0.050333053 0.06837067
0003c0 ca 84 8e 3d e2 de 76 bd 6a fd e0 3d 8b bd 59 bd
       0.06958921 -0.06027115 0.10985835 -0.053159278
0003d0 3b 7e 91 bd 3d 44 26 bd 41 56 1e 3b 98 95 8c 3d
       -0.07104155 -0.04059242 0.0024160298 0.0686447
0003e0 dc 1b cd bd f0 ae 79 3c 44 76 0e bd c3 c2 72 3d
       -0.100150794 0.015239462 -0.034780756 0.05926777
0003f0 a3 aa 78 3c db 67 1a 3d 17 8b be 3d 65 a1 0b 3d
       0.015177402 0.0376967 0.09303873 0.034089465

fc2.bias f4 [100]
000000 4f b9 15 bd 57 24 dc 3b c3 39 6b 3d 90 d7 86 bd
       -0.036553677 0.0067181992 0.057428133 -0.06584084
000010 cd 59 c2 3d b4 2d 7b 3b 75 18 f0 3b cc c1 f8 ba
       0.094897844 0.0038326802 0.0073271343 -0.0018978654
000020 ec db b7 bd f7 1d cf bc af 97 db bb 12 50 9c 3d
       -0.08977494 -0.025282843 -0.0067014317 0.0763246
000030 b8 59 da 3d 5f 27 a9 3d f3 a4 b6 bd 73 95 f4 bc
       0.10661644 0.082594626 -0.0891818 -0.02985642
000040 46 4f 9c 3c 7c 02 be bd 4c bf 51 3d f3 fc 9a 3d
       0.01908077 -0.092778176 0.051207826 0.075677775
000050 62 08 12 3d d5 82 9c 3c 76 4f d4 bc 41 a2 71 bc
       0.035652526 0.019105354 -0.025916796 -0.014748157
000060 67 9a 16 bd 68 aa 0b bd ff ea b3 3d 44 8b a3 bd
       -0.036768343 -0.03409806 0.08785056 -0.07985547
000070 88 4a 46 3c 76 da c7 3c 9c 69 3e bd a3 5c c4 3d
       0.012102731 0.024396162 -0.046487436 0.095879816
000080 11 17 37 3d f9 77 88 3c 04 1c 94 3d 6f e2 a7 bc
       0.044699732 0.01665877 0.07231906 -0.020493714
000090 03 e3 db 3c 76 6c 98 bd 2d a2 09 3c 54 14 8f 3d
       0.026841646 -0.07442562 0.008400482 0.06986299
0000a0 90 cb 87 3d eb c3 58 3d 96 04 68 bd 16 65 8a 3d
       0.06630623 0.052921217 -0.056645 0.06757562
0000b0 4a 43 a2 bd 29 42 60 3d 46 5e c0 3d 07 05 c1 3d
       -0.079229906 0.054750595 0.09392981 0.09424787
0000c0 bf be 50 bc 56 fa 9f bc d8 70 6b 3d 97 b3 52 3d
       -0.01274079 -0.01952855 0.057480663 0.0514408
0000d0 23 d3 86 3d 8a 36 0e 3d a7 be 23 bb 1f 84 3b 3d
       0.0658324 0.03471998 -0.0024985464 0.045780297
0000e0 02 26 00 3d 07 ef d7 bc ea 51 be bc 04 80 cf 3d
       0.031286247 -0.026359094 -0.023232419 0.10131839
0000f0 a3 28 30 bd 46 1e 18 bc fb 7a 27 3d a7 89 9f 3c
       -0.043007504 -0.0092845615 0.040888768 0.019474817
000100 86 98 d0 3d 03 14 ab 3d 44 be 21 bd 32 d6 5f bd
       0.101853415 0.08353426 -0.039488092 -0.054647632
000110 47 cf 95 3d 35 24 4f bd 50 d1 b9 bd 4a 4c 90 bd
       0.07314926 -0.05057164 -0.09073126 -0.07045801
000120 78 28 87 3d 81 da a1 bd eb de c8 3d 9a 3e aa bd
       0.06599516 -0.079030044 0.09808143 -0.083127216
000130 21 25 31 3d 53 62 93 3d 0a f4 93 bb e2 ca a5 3d
       0.0432483 0.07196488 -0.0045151757 0.080953375
000140 42 bf ba bd f1 29 aa bd 3c c2 02 3d ef b3 be 3d
       -0.09118511 -0.08308781 0.031923518 0.09311663
000150 78 29 8c bd c0 dd b7 3a 2e 95 b2 3c c0 7a 69 bc
       -0.06843847 0.0014027879 0.02179965 -0.014250457
000160 1f 1d 57 bc f0 2e 85 bc 88 c4 e1 3c 53 af 24 3d
       -0.013129502 -0.016257733 0.027559534 0.040206265
000170 39 72 78 3d 2d ef 28 bd d6 49 84 bc 1c 84 2c 3b
       0.060655806 -0.04124372 -0.016148489 0.002632386
000180 1c f0 0d bc a4 dc b4 bc 21 7e 61 bd f1 fc e9 bc
       -0.008663204 -0.022077866 -0.055051927 -0.028562995

fc3.weight f4 [3, 100]
000000 1f 66 11 bd 35 30 bb 3d 62 1e 3a bd c9 cd 6f 3c
       -0.03549778 0.09140054 -0.04543913 0.014636465
000010 20 80 bf 3d 06 25 51 bd 2d d4 ef bc 03 a6 63 bd
       0.0935061 -0.0510607 -0.029275978 -0.055578243
000020 10 f2 89 bd 56 d8 0d bc b4 05 42 3c 32 6d 92 3d
       -0.06735623 -0.008657536 0.01184218 0.071497336
000030 11 ff a2 bc e3 e6 8f bd e2 ab 81 bb fb 28 3d 3d
       -0.019897016 -0.0702646 -0.0039572576 0.04618166
000040 54 2e 5d 3d b2 f2 03 bc ce 87 fe bc ac 1b 40 3c
       0.05399926 -0.008053469 -0.031070616 0.0117253475
000050 13 a1 a6 3d 5e 8b 25 3d 10 a2 41 3d 64 87 0f 3c
       0.08136191 0.040416114 0.047273695 0.008760307
000060 19 4b bc 3c d8 30 09 bd 7c b1 92 bd 34 98 ff 3c
       0.022985028 -0.033493847 -0.07162759 0.031200506
000070 61 14 62 3d e0 5b aa 3b 86 92 8f bc 19 f7 ca 3c
       0.055195216 0.0051989406 -0.017525923 0.024776028
000080 6e e6 6b bd e2 8a 1f 3d fa 6a 27 bd 10 5c 85 bd
       -0.0575928 0.03895081 -0.040873505 -0.065117
000090 ac 07 4c bd 10 c5 4d bd 4f fd bb bd 4d f2 5f 3d
       -0.049812004 -0.05023676 -0.09179174 0.054674435
0000a0 c0 3c 4f 3d 21 e6 84 bd 65 1d c2 bd ea e4 b5 3d
       0.050595045 -0.06489206 -0.09478263 0.088815525
0000b0 26 b1 40 bd 64 90 a6 bd 86 c0 a1 bb cb 4a ab 3d
       -0.047043942 -0.08133009 -0.0049362807 0.08363875
0000c0 d3 3d 00 bd 47 15 e8 3c b4 fe 6c 3c bf 95 fb bc
       -0.03130896 0.028330458 0.014465023 -0.030711053
0000d0 8f 9a 2d 3d 45 0d a5 bd 80 f3 66 3d d8 b4 d6 3c
       0.042383727 -0.080591716 0.056384563 0.02620928
0000e0 85 63 23 bd f1 bd 8d bd 81 35 92 3d 74 10 a0 bd
       -0.03988983 -0.06920994 0.07139111 -0.07815638
0000f0 0c a9 23 3c 94 e2 9b 3b 07 40 c9 3d 27 32 92 bd
       0.009989034 0.004757235 0.09826665 -0.07138472
000100 f4 97 ab 3b b9 d7 a0 3d 35 00 5f 3c 1c 39 88 3c
       0.00523662 0.07853646 0.013610889 0.016628794
000110 6b 0d b3 bd 6a 0a 22 bd b6 58 b7 3d c8 cd 74 3b
       -0.08742794 -0.039560713 0.08952467 0.00373541
000120 31 f5 e8 bc 04 e9 af bd 40 84 85 3c 49 90 23 3d
       -0.028437229 -0.08589366 0.016298413 0.039932523
000130 ea 1a 9c 3d a6 7a 90 3d 0a 54 eb 3d a3 94 95 3d
       0.07622321 0.07054643 0.114906386 0.07303741
000140 dd ab f3 3d 24 fd 96 bd da 31 9b bd d0 64 b8 bd
       0.11898015 -0.073725015 -0.07577868 -0.090036035
000150 18 a1 30 3d e2 a6 3c bd 35 af 7f 3a 99 d2 9f bd
       0.04312238 -0.04605759 0.0009753586 -0.0780384
000160 73 5f a1 3c f5 ff b3 3a 4d 65 65 3d 46 ed 22 3c
       0.019698834 0.0013732897 0.05600481 0.009944266
000170 fb 98 c7 3c 83 a7 87 bb 43 cf 41 3b 64 7d de bc
       0.024364939 -0.004139842 0.0029573 -0.0271594
000180 a9 5e 81 3d 81 fb be bd 16 e7 88 3d 0a d3 19 bd
       0.06316883 -0.09325314 0.06684701 -0.03755478
000190 41 7f 09 3c e9 6c 01 bd b6 4a ae bd 2f bf b3 3d
       0.008392156 -0.031598005 -0.08510344 0.087767
0001a0 91 aa 60 bc 63 7d a8 bd 6a 60 4f 3c 1f 6c 88 3d
       -0.013712541 -0.082270406 0.012657264 0.066612475
0001b0 df 51 32 3d b0 6a 89 3d 7b 0e a4 bb bc 35 5c 3c
       0.04353511 0.06709802 -0.005006609 0.013440546
0001c0 91 26 6c 3c 53 45 93 bc 81 d8 ea bd 23 02 ef bc
       0.014413492 -0.017977392 -0.11467076 -0.029175824
0001d0 f0 7b 4d bd 10 96 d5 bd b1 fd 28 3d fd 15 a8 3d
       -0.050167024 -0.10429013 0.041257564 0.08207319
0001e0 04 e8 ab bd 96 6c 53 3d ff 8e c2 bc 7c bc e6 3c
       -0.08393863 0.051617227 -0.023749826 0.028166048
0001f0 9b b5 c4 bd f6 b3 0f bc ac 43 ec bc bb d5 4d 3d
       -0.09604951 -0.008770933 -0.028840862 0.050252657
000200 d9 0d e6 3c c1 fd bf 3d 89 af 49 3d 16 ef 13 bd
       0.028082775 0.093745716 0.04923967 -0.036116682
000210 02 dd d6 bd 8d a5 03 bc d5 76 89 3d eb 1a 8c 3b
       -0.10491373 -0.008035076 0.067121185 0.00427567
000220 50 5b 8b bd e9 a8 98 bc ea 56 d8 3d ab 87 8a 3c
       -0.06804526 -0.01863523 0.105634525 0.016910395
000230 47 69 ae bc 17 47 99 bd b1 5e df bc 3d 6c bc bd
       -0.021290435 -0.074842624 -0.027266832 -0.09200332
000240 50 12 17 3c 2e c6 9a 3d 91 fd 14 bd 2f 72 4c bd
       0.009220675 0.07557331 -0.036374632 -0.04991358
000250 6e 57 99 bc b2 ae b0 bd ee e6 ac bd 88 82 18 3d
       -0.018718448 -0.086270705 -0.08442484 0.03723386
000260 62 ed 11 3d fa 97 bc bc dc cc 07 bd 07 ee b2 bd
       0.035626777 -0.023021687 -0.033154353 -0.08736806
000270 28 35 7b bd 15 36 2d bd e6 4e 8c bc 7b 2b 23 3d
       -0.06132999 -0.042287905 -0.017127465 0.039836388
000280 70 63 f8 3c c6 d0 c1 3d ed 9c bf 3d 93 18 c4 3d
       0.030320853 0.094636485 0.09356103 0.09575
000290 cb cd a9 3c 2d 65 6d 3c bf 51 74 3d 28 af 83 bd
       0.020728013 0.014489454 0.05964827 -0.06429893
0002a0 18 3b c7 bc 85 56 91 bd b5 97 cd 3d b7 e6 2a 3d
       -0.02432017 -0.070965804 0.100387014 0.041723933
0002b0 ff 19 01 bc 4f 2e 34 bc 2c b4 68 3d 6e cf 9a 3d
       -0.007879733 -0.010997369 0.05681245 0.07559095
0002c0 e4 ad 84 bd 54 4b ae 3d 7a 0f 06 be 2e c3 3f bc
       -0.064784795 0.085104614 -0.13091841 -0.011704249
0002d0 e2 ba aa 3d 40 b0 d3 bc 94 92 36 3d c5 48 94 bc
       0.08336426 -0.025840878 0.04457338 -0.018101105
0002e0 d2 82 82 3d 22 62 4d 3d cd 9c eb 3c bb 8c 48 bd
       0.06372608 0.050142415 0.028761292 -0.048962336
0002f0 9d 4d 57 3c 3b 39 3a 3d e4 a5 70 bd 37 03 cc 3d
       0.013141063 0.045464735 -0.058751956 0.09961551
000300 c4 3e 98 3c 99 fb 9d bc 80 5d 3b bc 04 33 75 3b
       0.018584616 -0.01928501 -0.011435866 0.003741444
000310 8a 02 8c bc 3f fc b9 bd 73 c0 80 3d b4 05 b5 3d
       -0.017091054 -0.09081315 0.06286707 0.088389784
000320 78 93 3f 3e 1c c9 93 bd 75 4d ef bd 5e 6c 65 3d
       0.18708599 -0.07216093 -0.11684696 0.05601155
000330 74 9e 94 3d 8d 07 ca 3d 7f 3b 52 be 11 a5 2f be
       0.07256785 0.098647214 -0.20530508 -0.17152812
000340 2d 43 4c 3e 80 c4 b0 bd 68 e4 11 3e 75 d5 a8 3d
       0.199475 -0.086312294 0.14247286 0.08243839
000350 8b 38 8f 3e fd 29 08 be 14 d4 38 bd fd d6 7c 3e
       0.27972826 -0.13297267 -0.04512413 0.24691387
000360 67 20 19 3d 26 4c 6e 3d aa ca f8 bd 94 b2 2b 3d
       0.037384417 0.05817809 -0.1214803 0.041918352
000370 5d 8d 87 3d 69 93 94 bd 36 04 06 3e 73 dc 36 3e
       0.0661876 -0.07254679 0.13087544 0.17857532
000380 02 e4 8c bd 8e 10 ba 3d b0 84 df 3b 19 c8 5b 3e
       -0.068794265 0.09085189 0.0068212375 0.2146305
000390 5e aa 5c 3e 76 19 40 3e 7a 29 3b be 0e 58 a1 3c
       0.21549365 0.18759713 -0.18277541 0.019695308
0003a0 c3 e3 f7 bd a2 d6 c2 3d bb 91 b9 bc 1b 45 74 be
       -0.12103989 0.09513594 -0.022652498 -0.23854487
0003b0 70 0f 15 3d 66 0e 8e bd 70 82 a9 bd e2 0f 98 3d
       0.036391675 -0.0693634 -0.08276832 0.074249044
0003c0 f4 f0 c5 3e 68 b5 67 3d ae 31 77 3e de dc cf bd
       0.38660395 0.056569487 0.24140045 -0.10149549
0003d0 41 3b 7b 3d 9d 3f a8 3d dd 14 72 3d 5c 83 f1 3c
       0.061335806 0.08215258 0.059101928 0.029481582
0003e0 e6 58 1e 3e f8 fb a1 3d 32 5e 9f bd 74 37 fe 3d
       0.154636 0.07909387 -0.07781638 0.124129206
0003f0 76 35 14 be d7 6e 83 bd bd 65 dd bd 49 f9 76 3c
       -0.14473519 -0.064176254 -0.10810421 0.015074083

fc3.bias f4 [3]
000000 8b 3f 5e 3d 42 47 69 3d 39 e6 e1 bb
       0.054259818 0.056952722 -0.0068938998
