model/trained_model/model.pt (torch, 46836 bytes, 6 tensors)

fc1.weight f4 [100, 6]
000000 d0 2d 8a 3e 52 c3 88 3e 63 d6 26 be 1b 55 a7 3e
       0.26988077 0.26711518 -0.1629272 0.32682118
000010 13 cb bc 3e 5f 6d ae be be e5 eb 3c 35 cb b5 be
       0.36873683 -0.3406782 0.028796073 -0.35506597
000020 c5 58 17 3e 05 c7 5a 3e 1f 00 2f 3c ff 04 fa bb
       0.14779957 0.21364982 0.010681181 -0.00762999
000030 93 59 42 be d3 c9 2f 3d 51 b9 1d 3e cc 98 b3 be
       -0.18979482 0.042917084 0.15402724 -0.35077512
000040 82 a2 39 3e 98 02 2d be 48 b9 c9 bd 96 20 80 be
       0.18128398 -0.1689552 -0.09849793 -0.2502486
000050 13 38 fd bd 9d 28 58 be 91 73 c0 be 18 d1 ce 3c
       -0.12364211 -0.21109243 -0.3758817 0.025246188
000060 24 93 e6 bd 99 56 aa 3c c6 93 f4 bd 77 fe 96 be
       -0.112585336 0.020793246 -0.11942248 -0.29491016
000070 4a 12 8c 3e 27 28 92 be d3 e2 a0 3e 74 a5 08 3e
       0.27357703 -0.2854626 0.31423053 0.13344365
000080 1a 9e 52 be c6 b7 2a be ca de ea 3c 69 2d 8e be
       -0.20568123 -0.16671667 0.028670687 -0.2776902
000090 3b 4e 89 3e be de 58 be 15 ac c6 be 66 58 ac 3e
       0.26817498 -0.2117872 -0.38803163 0.33661193
0000a0 bb c5 ea 3d 80 41 b3 be e9 4b c1 be 25 4d 89 be
       0.11463495 -0.3501091 -0.37753227 -0.2681667
0000b0 65 a8 ab be 4f 03 de 3d e2 38 b8 be 4e 5e 9c 3d
       -0.33526912 0.10840475 -0.35980898 0.07635175
0000c0 1e a6 ac be 4e cd b8 be 34 d6 ae 3e 83 e8 a4 3e
       -0.33720487 -0.36094135 0.341478 0.32208642
0000d0 74 25 4a 3e 79 c2 a1 3e fd f6 8a 3e ba 2e fe 3d
       0.1974085 0.31593683 0.27141562 0.12411256
0000e0 c5 ee 35 be f1 e2 7f 3e a1 32 3e 3d 13 f7 87 be
       -0.17766865 0.24988915 0.046435002 -0.2655569
0000f0 a1 14 21 3e 4c 06 e1 bd ce 08 8e be 40 ae bf 3e
       0.15730526 -0.10987529 -0.27741092 0.3743763
000100 18 63 a1 3c dc 86 85 be de 3f 8d be 97 1b b2 3e
       0.019700572 -0.26079452 -0.2758779 0.34786674
000110 3a 9e c2 3e 9d 1d 4c be db 52 fd bc c6 88 77 be
       0.38011342 -0.19933172 -0.030923298 -0.24173269
000120 e7 47 13 3e a7 a7 e3 be 30 cc 33 3e b4 7e 9e be
       0.14382897 -0.44463846 0.1755836 -0.30956042
000130 fc 85 b4 3d 20 93 8b 3c 7e 34 15 3e 7f d1 94 3e
       0.08814618 0.017037928 0.14570805 0.29066083
000140 14 8f 9e 3e 5e a3 a1 3d 5f d8 ca 3e 4c d1 81 be
       0.30968535 0.07892488 0.39618203 -0.25354993
000150 94 3c 0f be fe 7d 91 3e ea b9 e5 be f5 b0 ca 3d
       -0.13987952 0.28416437 -0.44868404 0.09897033
000160 41 99 a7 38 43 d5 76 3e 8c 7f 20 3e bb fc bd 3d
       7.991726e-05 0.2410479 0.15673655 0.0927672
000170 bf 6c 06 3d 97 fe 4c 3e 7c 82 ee 3d 88 ee 45 3e
       0.032818552 0.20018993 0.11645982 0.19329274
000180 36 03 d7 bd ac f5 15 3e 34 44 75 be 99 1b 4e 3e
       -0.10498659 0.14644498 -0.23951799 0.20127715
000190 e9 39 cf 3d 7f 63 d1 3e 44 fb ad be a8 2f e9 be
       0.10118467 0.40896222 -0.33980763 -0.4554417
0001a0 87 20 8d 3e 50 99 a6 3e ae 2d 80 3e 6e 70 59 be
       0.2756388 0.32538843 0.2503485 -0.21234295
0001b0 2f b2 aa be 09 8d 61 3e df 8e 95 3e e1 2f b8 bd
       -0.33339068 0.22026457 0.29210564 -0.08993507
0001c0 4f c1 95 3e 82 7f 26 3e 68 15 5b 3e e4 eb 7a 3c
       0.29249045 0.16259578 0.21394885 0.01531503
0001d0 3a cc c5 3e 1b 3b 9b 3e 76 2f 0c be 9d 9c eb 3b
       0.38632375 0.3031853 -0.1368998 0.0071903006
0001e0 7a ba 98 be 16 b4 97 be a0 64 c2 be 6b 72 10 be
       -0.2982977 -0.29629582 -0.37967396 -0.14106147
0001f0 ac 18 25 3e 6a 31 9f be 95 9b b2 3e 0a 92 35 3e
       0.16122693 -0.31092387 0.34884325 0.1773149
000200 84 db c9 be 72 7f 95 be 30 51 be 3e 2a 9e a0 be
       -0.3942529 -0.29198796 0.37171316 -0.3137067
000210 9f e7 e0 bc e4 c6 45 3d 36 84 bc be d7 1b 80 3e
       -0.027454196 0.04828538 -0.3681962 0.2502124
000220 82 6c 10 3e e5 cb 5e 3e 14 97 96 be 07 8b 13 be
       0.14103892 0.21757467 -0.29412138 -0.14408503
000230 f7 c2 83 3e 36 74 ca be 43 b8 53 3e d4 62 bf 3e
       0.25734684 -0.39541787 0.20675759 0.37380087
000240 f7 55 86 be 05 54 81 bd c7 f0 84 3e 35 f2 31 be
       -0.2623746 -0.063148536 0.2596495 -0.17377551
000250 ee 34 32 be 35 b7 90 bc b9 31 bf 3e 5c c4 22 3e
       -0.17403004 -0.017665485 0.37342623 0.15895218
000260 06 aa d8 3d bc ed 94 3e a3 e3 b7 3e 4f 9f 3a be
       0.105793044 0.29087627 0.3591586 -0.18224834
000270 1a 52 a1 bd 4c 3b b0 be fb 49 61 3c ef 18 c9 be
       -0.07876988 -0.3442024 0.0137505485 -0.39276835
000280 b0 03 c6 3e 67 3e 9e be 4c 4f 94 be a5 4f a6 3e
       0.38674688 -0.30906984 -0.2896675 0.3248264
000290 e8 ac f8 bd 68 7c 90 3e d2 8a 3d 3e 78 50 1e bb
       -0.12142354 0.28219914 0.18509987 -0.002415685
0002a0 11 7f a4 3e cb 24 76 be 8f 17 25 3d 97 12 74 be
       0.32128194 -0.24037473 0.04030567 -0.23835216
0002b0 03 81 b8 bd 54 63 89 3e 7c 32 be 3e dd 6b 56 3e
       -0.09008982 0.26833594 0.37147892 0.20939584
0002c0 33 89 1a be 31 82 98 3e 04 d9 a9 be b6 7a 90 be
       -0.150914 0.29786828 -0.33173382 -0.2821862
0002d0 0c 34 53 bc 26 f3 c9 3d 8c b9 bd 3e fb e7 9e 3e
       -0.012890827 0.0986083 0.37055624 0.31036362
0002e0 5b 6a 65 be 83 52 e5 3d 26 81 12 be 2f de e1 be
       -0.22403853 0.111973785 -0.14307079 -0.44114825
0002f0 0e 67 b6 3d 7d 49 41 be 2a ff a2 3e f2 6b 2d 3e
       0.08906375 -0.1887569 0.318353 0.16935709
000300 6a fd a7 be 76 77 b1 be e3 65 fe bd b6 98 e5 3c
       -0.32810527 -0.34661454 -0.12421777 0.02802692
000310 3a 09 a5 be 74 37 39 3d d0 7c 08 be 4b 90 bd be
       -0.32233602 0.0452189 -0.13328862 -0.3702415
000320 ec 3e 53 3e 94 9d 40 3e fd b9 8e be cc 50 2d 3d
       0.20629472 0.18810111 -0.27876273 0.042313382
000330 1b cb 3a 3e ae c4 2c 3e 78 5c 21 3e 00 1d 5b be
       0.18241541 0.16871902 0.1575793 -0.21397781
000340 0e eb cc 3e e8 32 a0 3e 32 02 c1 3e 94 e8 cc 3e
       0.40023082 0.31288838 0.37696987 0.40021193
000350 ec 28 a8 be bf 69 d5 bc 90 6c 4f 3e 68 b4 d7 3d
       -0.3284372 -0.0260514 0.20256257 0.10532457
000360 83 b3 da bd f5 c4 81 bd 49 cd 2a 3e f9 08 95 3c
       -0.106787704 -0.06336395 0.16679873 0.018192755
000370 3f 5a e9 3d ac b8 b0 3e 06 e1 b6 bd b0 38 aa be
       0.11394166 0.34515893 -0.089296386 -0.33246374
000380 5b 59 0e be 63 bb 27 3e 3c 0d 98 3e 3e ba 55 bc
       -0.13901274 0.16380076 0.29697597 -0.013044892
000390 d1 23 bf bc 40 76 39 be 2a 1e d1 3e b3 b0 0e be
       -0.023332508 -0.18111515 0.40843326 -0.13934593
0003a0 d7 8e 3c 3e 93 db 95 be bf 3f 8b 3e 1a c1 ab be
       0.18413864 -0.29269084 0.27197072 -0.33545762
0003b0 ca b1 aa be aa 08 b5 be bc 2d 6b 3e 06 e1 cb be
       -0.33338767 -0.35358173 0.22966665 -0.39820117
0003c0 84 8f 03 3e ac 71 a4 3e 36 9f d1 3e d4 79 c1 bd
       0.12847716 0.32117975 0.4094178 -0.09447065
0003d0 ed 15 b9 3e 1b a6 33 3e d3 47 82 bd 29 a5 c2 bd
       0.3614954 0.17543833 -0.06361356 -0.09504158
0003e0 fc da 9f 3e be c7 d6 be 0f be 68 3e 27 e9 48 3e
       0.3122176 -0.41949266 0.22728752 0.1962019
0003f0 1d f8 92 be 61 ba 98 be af 81 a5 be 46 de 8b 3e
       -0.2870492 -0.29829696 -0.32325503 0.2731802

fc1.bias f4 [100]
000000 81 ae 16 3e ac 77 c1 3e f3 e9 86 be e4 06 f6 bd
       0.14715005 0.37786615 -0.26350364 -0.12013033
000010 2a c1 f3 3a b3 24 69 3e 56 96 a1 3e c9 3c 91 be
       0.0018596996 0.22767906 0.3156001 -0.28366688
000020 81 5a bf be 86 27 53 be a1 bc 16 3d 69 c6 4d be
       -0.37373737 -0.20620546 0.036800984 -0.20095219
000030 4f 96 97 3e 51 ba b1 3e d7 91 59 be b2 2e 9f 3e
       0.29606864 0.3471246 -0.2124704 0.31090313
000040 2c 2f 37 3c 1a 6e 1d be 5c 67 68 3e 78 de d5 3c
       0.01118068 -0.15374032 0.22695678 0.026107058
000050 c7 60 b8 be 34 12 c7 3d bc f7 22 bd 0a 77 92 be
       -0.36011335 0.09720269 -0.03978704 -0.28606445
000060 88 d9 c5 be 10 14 8d 3e 5b ae 38 bd 4f a0 09 be
       -0.38642526 0.2755437 -0.045088153 -0.13440059
000070 e3 de 87 be 85 44 93 be a6 7c 6c bd 8b cb 2f 3e
       -0.26537237 -0.28763214 -0.05773606 0.17167489
000080 46 83 f9 3d fb af ce bd 2c db 1a 3e 63 26 85 be
       0.121832415 -0.10092159 0.1512267 -0.2600585
000090 31 9a 4d bd 5a 55 aa 3d c6 96 bc 3d 28 e2 47 3e
       -0.050195877 0.08317061 0.09208445 0.19519866
0000a0 de 0a 0c bd 02 36 aa 3d cc 25 a1 be 49 9d b0 be
       -0.03419005 0.083110824 -0.3147415 -0.34495
0000b0 26 1e 3f 3e cf f5 7b 3d 60 5b 24 be 3d 26 80 3e
       0.18663844 0.06151372 -0.16050482 0.25029173
0000c0 74 78 2d 3e d7 fa 49 3c 5c 8f 9a be 10 b6 b6 be
       0.1694048 0.012327871 -0.301875 -0.35685778
0000d0 85 df 89 3e 65 93 0b 3e 8f a0 cd bd 37 05 a9 be
       0.26928344 0.13630445 -0.1004039 -0.3301179
0000e0 21 4a 39 be 14 2e 3d 3e 62 34 24 be ef 99 de 3d
       -0.18094684 0.18474609 -0.16035607 0.10869204
0000f0 47 7d c0 bd 06 fb 3d 3c a9 5d 8b bd 48 1c 7f 3e
       -0.09398895 0.011595493 -0.06804974 0.24913132
000100 2d 3d 93 be ea 7d df bc 1b 92 b8 be 90 63 bd bd
       -0.2875761 -0.02728172 -0.3604897 -0.09247506
000110 7b a5 94 be bf 4e 83 3e b4 1d 70 be cb 0c 2d 3d
       -0.29032502 0.25646016 -0.23448831 0.04224853
000120 95 35 8e 3e 77 bd e7 3d 78 3a aa 3e 36 30 d2 be
       0.27775255 0.113154344 0.33247733 -0.41052407
000130 af 70 a6 be 05 7e c0 be c4 59 8d bd b4 7f b4 be
       -0.32507846 -0.37596145 -0.06901887 -0.3525368
000140 ae a4 94 3d 0a 7d 21 3c 76 30 45 bd 47 5e 8e be
       0.07257973 0.009856472 -0.04814192 -0.27806303
000150 a7 61 f7 3c bd 43 a4 bd 93 72 fc 3d 69 b1 d5 3d
       0.030197931 -0.080207326 0.12326541 0.10434229
000160 d1 f6 a5 3e b9 dd df bd 26 d6 d2 be 98 11 d1 3e
       0.32414868 -0.10930962 -0.41179007 0.40833735
000170 6a 85 a9 3e 1f 4d 84 be 6a 55 9a 3e 04 88 2c bb
       0.331096 -0.2584009 0.3014329 -0.0026326189
000180 4b 9f 48 3e 52 80 b7 3d c5 06 a0 3e c7 8e 83 3e
       0.19592015 0.08960022 0.31255165 0.25694868

fc2.weight f4 [100, 100]
000000 4c ec 24 3c be 7c f0 3b e9 fe 11 3d dd e2 41 bd
       0.010066103 0.007339089 0.035643492 -0.047335494
000010 97 7f 87 3b 5c 69 b7 bc 1c f9 c2 3d b7 6d 16 3d
       0.004135083 -0.022389106 0.0952017 0.036725726
000020 17 95 cf 3d bb 11 cf bc fb b8 d3 bb 87 6e cf bc
       0.101358585 -0.02527701 -0.0064612604 -0.025321258
000030 4f d2 90 3d 66 7f 60 bd 29 0e d9 bc ee 79 93 3c
       0.07071363 -0.054808997 -0.02649601 0.018002477
000040 89 87 46 bd 20 78 27 3e 93 f2 46 3c 9f bd 9a bc
       -0.0484691 0.16354418 0.012142795 -0.018889247
000050 00 60 ab ba 30 22 cc 3c 30 59 87 3c f3 07 a5 3c
       -0.0013074875 0.024918646 0.01652202 0.020145392
000060 6d 2f eb bc d3 5a af bd 6c bb 2d bd fe f4 84 3d
       -0.028709138 -0.08562245 -0.042415068 0.06492041
000070 82 f9 ad bd d2 1a 8c bc e5 3a a7 bd 8d 30 97 3d
       -0.084948555 -0.017102633 -0.0816553 0.07382307
000080 eb 4f a6 3c 4b 54 d4 bd 4a 23 c0 3d b1 b3 a3 bd
       0.02030178 -0.1036764 0.09381731 -0.07993258
000090 01 64 7a bd 22 b3 45 bd b0 30 5d 3c bf fa 4f bc
       -0.061130527 -0.048266537 0.013500378 -0.01269406
0000a0 57 db b3 3d a3 87 39 3d c5 c9 b9 3d 93 fa 27 bd
       0.0878207 0.04529537 0.090716876 -0.04101045
0000b0 f1 d5 a9 bd 4b 8c d2 bb 9c 36 17 3d cd c4 b7 bd
       -0.08292759 -0.0064254156 0.036917314 -0.08973084
0000c0 c8 b3 e5 bc ee c6 ab 3d fb 98 1e bd 0d 9b 92 3b
       -0.028039828 0.08387552 -0.038720112 0.00447405
0000d0 79 1b e8 3c 77 1b b6 3c b2 69 89 3b 12 a8 a0 3d
       0.028333412 0.022229893 0.004193508 0.07844557
0000e0 63 9e 59 3d fe 50 cc 3c cd 2c fd b8 87 10 af bc
       0.053129565 0.024940964 -0.00012072325 -0.021370186
0000f0 57 d4 66 3d e1 1b fe bc 95 3d c6 bd b7 f7 10 bc
       0.056354847 -0.031019153 -0.096797146 -0.008848122
000100 60 47 6b 3d 3d 33 ca 3d 9a da 02 bb b1 c6 9b bd
       0.057441115 0.09873054 -0.0019966722 -0.07606257
000110 0e 2e a7 3c fd df 93 3d 7a 22 48 bd ec c0 53 bc
       0.020407703 0.07220457 -0.048861004 -0.012924414
000120 11 24 99 bd 3f 37 ea 3c a0 80 93 bd ac a2 46 bd
       -0.07477582 0.028590797 -0.07202268 -0.04849498
000130 3e 29 50 bd 09 27 5c 3c b2 8d d6 3d ff aa b8 3c
       -0.05082058 0.013437041 0.10476245 0.022542475
000140 96 75 89 bd 9e 5e 86 3d 56 87 81 3d 19 25 aa 3c
       -0.06711881 0.065610155 0.063246414 0.020769643
000150 ce 24 6d bd 8a d6 d0 3c 5d 8c df 3c df f5 71 bd
       -0.057896428 0.025492925 0.02728861 -0.05907237
000160 11 ad 97 bd 0a e3 ac 3d d2 fd c1 bd a1 e7 1a 3d
       -0.07406057 0.08441742 -0.094722405 0.037818555
000170 f7 2f af 3d 2b 14 64 3d 28 e9 f9 bc 9c 1f 0b bd
       0.085540704 0.055683296 -0.030506685 -0.033965692
000180 79 23 80 3d 81 4a c2 bc 4f 3c 0f bd b6 ba ab bd
       0.06256766 -0.023717167 -0.034969624 -0.08385222
000190 e7 da 1e 3d 9e c3 75 bd 80 e6 05 be b9 ae 61 3c
       0.03878298 -0.06000101 -0.1307621 0.013774567
0001a0 5f c6 81 bd 31 a7 67 bd 77 82 a8 3d c2 f0 b4 3d
       -0.063366644 -0.05655593 0.08228009 0.088349834
0001b0 3b 16 bf bd 3d b2 8c bd 35 cd 9d bd 58 02 bc bd
       -0.09330412 -0.06869934 -0.07705156 -0.091801345
0001c0 6b 41 88 bc 3d bd 00 bd ec 00 0c be f0 9c d1 3c
       -0.016632756 -0.03143047 -0.13672227 0.025587529
0001d0 49 f4 7b bc 73 d9 16 be bb f7 16 bd 36 d1 7c bd
       -0.015378066 -0.14731388 -0.036857348 -0.061722957
0001e0 0a ec 57 3d 61 31 7f 3d bd 5a b0 3d 8b a2 1a 3d
       0.05271534 0.06230295 0.08611057 0.03775267
0001f0 10 f8 5c 3d a9 69 b8 3d 79 e6 b4 bd 77 01 fc 3d
       0.05394751 0.09004528 -0.08833022 0.12304967
000200 e0 e8 a5 3d 3c e0 e5 3b 6e b6 39 bd 01 8b 87 bb
       0.08101058 0.007015256 -0.045339994 -0.0041364436
000210 fe 94 ac 3d d9 7e 6d bd 37 ac 3b 3c 9d e9 32 3d
       0.084268555 -0.0579823 0.011454633 0.043679822
000220 e3 e1 ae 3d 20 6a 30 3d bd 78 29 bc cc 3b 5c bc
       0.08539178 0.04306996 -0.010343728 -0.013441991
000230 a2 65 e5 3c 08 2c 48 bd a2 3f 72 3c 56 2e c4 3b
       0.028002564 -0.048870116 0.014785679 0.005986969
000240 69 69 b2 3d 1b 4c e7 bd 93 c8 1d 3c cd 60 6b bd
       0.08711512 -0.11293813 0.00963034 -0.057465363
000250 e2 a4 9b 3d c3 fa cd bd 08 a9 bb bd 47 82 9b bc
       0.07599808 -0.100575946 -0.091630995 -0.01898302
000260 48 27 c1 bd 57 34 9c bd f8 86 a2 bd 53 18 74 bd
       -0.094313204 -0.076271705 -0.079358995 -0.05959351
000270 db 43 8f 3d 19 8d c0 3d 4d 9d 50 bc 14 cf 30 3d
       0.06995364 0.09401912 -0.012732816 0.043166235
000280 65 c9 5c 3d 8d 56 a5 3d 12 07 98 3d f6 1e df 3c
       0.053903002 0.08073149 0.074232236 0.027236443
000290 43 a3 9c 3d b3 cb 05 bd c0 11 90 bc e0 8a 9c 3d
       0.07648327 -0.032664966 -0.017586589 0.07643676
0002a0 c5 c7 84 bd 85 dd 5e 3b 95 9b b3 3d a5 ab d8 3d
       -0.064834155 0.0034006548 0.08769909 0.105796136
0002b0 70 2c ac bc 0a 45 c0 bc 93 4c 34 3d 3f c5 01 bc
       -0.021017283 -0.02347042 0.04401834 -0.007920562
0002c0 13 92 55 3c eb 02 a0 3c b7 fb 20 3d d6 64 3c bd
       0.013035315 0.019532641 0.039302554 -0.045994602
0002d0 98 b8 a7 bd 78 01 42 3d b4 c7 3e 3c 22 91 a9 bd
       -0.08189505 0.047364682 0.011644293 -0.08279635
0002e0 8f 7b 20 bd fa dd 86 3d ae c4 df 3c ef c2 95 bd
       -0.039180335 0.065853074 0.027315464 -0.07312571
0002f0 ca 62 95 3c 91 d6 ad 3d 2c 6b 23 bd 28 9d 89 3d
       0.018235583 0.08488191 -0.03989713 0.06719428
000300 81 0a 93 bc d7 13 16 3d 0c dc f8 3c 45 3c 89 bc
       -0.017949345 0.036640014 0.030378364 -0.016752372
000310 91 3e a6 bd 96 b3 be 3d e4 9f 56 3d 0c 9a 7b 3d
       -0.08117402 0.09311597 0.052398577 0.061426207
000320 5d f3 36 bd 32 39 c1 3d cd 21 82 3d 57 8e 05 3d
       -0.044665683 0.09434737 0.06354103 0.03260645
000330 13 01 4c 3d 8a 42 15 bd d3 d5 f2 bc fd 45 07 3d
       0.049805712 -0.03644041 -0.029642975 0.03302573
000340 cd ac 8c ba 00 d3 4a 3d db 53 9a 3d 08 21 93 3d
       -0.0010732651 0.04951763 0.075355254 0.071840346
000350 b0 e1 ba bd cd af 04 3b b3 17 fc bc 47 51 67 3d
       -0.09125078 0.0020246387 -0.03077302 0.056473996
000360 40 76 4f bc c2 6e cc 3d f3 ff c4 3c b3 45 98 bd
       -0.01266247 0.09982063 0.024047827 -0.07435169
000370 98 f7 b8 3d 73 08 b1 3d 8b 07 93 bd b3 4d 6d 3c
       0.090316 0.0864419 -0.07179173 0.014483857
000380 8b 45 97 bd 80 38 0d 3c f3 3a 08 3d db b3 ac bd
       -0.07386311 0.008619428 0.033259343 -0.08432742
000390 00 d9 5e bb e7 12 15 bc ed 3b 24 3d 1a 8d 8f 3d
       -0.0034003854 -0.009098745 0.040096212 0.07009335
0003a0 13 b7 a7 bc 97 a4 06 3d 00 a8 ff bc cd d5 cb bd
       -0.020473039 0.03287181 -0.031208038 -0.09952889
0003b0 95 28 93 3d 23 12 98 bd 3d d6 74 3d b5 d6 c7 bd
       0.07185475 -0.07425334 0.059774626 -0.09757749
0003c0 70 66 41 bd eb 70 aa bd 1a c5 89 bd 20 f7 bd bc
       -0.047216833 -0.08322319 -0.06727047 -0.023189127
0003d0 60 4e a8 3c e7 94 de bb 0d cb 8c bc 73 ab 0c bd
       0.020545185 -0.006792653 -0.017186666 -0.034343194
0003e0 0d 2a cc bc 67 f8 7a 3c 67 58 01 bb 85 d5 c6 3d
       -0.024922395 0.015318013 -0.001973653 0.09708694
0003f0 f8 e0 b2 bd 88 1c ab 3d fb 07 c6 3d 10 58 40 bd
       -0.08734316 0.08355051 0.09669491 -0.046958983

fc2.bias f4 [100]
000000 32 84 b1 3d c9 b3 96 bc 10 9e 72 bd a7 2c 53 3b
       0.086677924 -0.018396275 -0.05923277 0.003222266
000010 63 2d 38 3d de dd b4 3d 6b 9d 0c bd 2f cc b3 bc
       0.04496516 0.0883138 -0.034329813 -0.021947948
000020 a3 bd 8c bd 87 a6 c4 bd dc c6 43 bd ea f1 91 3d
       -0.06872108 -0.09602075 -0.04779707 0.071262196
000030 44 12 1d 3d 4d 76 b8 3d f6 04 0d bc e6 d5 0d 3d
       0.038347498 0.09006939 -0.00860714 0.034627818
000040 e3 6f 1f bd 61 80 ae 3d 6b 59 9b bd fa 81 97 bc
       -0.038925063 0.0852058 -0.075854145 -0.018494595
000050 87 59 8e bd 4e 22 89 3d 14 68 8a bd 0b 0e 96 bd
       -0.0695067 0.06695996 -0.067581326 -0.07326897
000060 be 27 ac 3d 3b 84 a3 3d f2 c0 9b bd 72 c3 61 bd
       0.08406018 0.07984205 -0.07605161 -0.05511803
000070 95 19 8b 3c 2d 73 97 bd 38 f7 b8 bc 76 16 ac 3d
       0.016979972 -0.07395015 -0.02257882 0.084027216
000080 64 de 5e 3b 52 69 8d 3d 24 67 8d bc 3e 5d 11 3d
       0.0034007067 0.06904854 -0.017261095 0.035489313
000090 da bf 0d 3d 49 6c 5c bc 22 02 25 3d c1 cb c1 bc
       0.034606792 -0.013453552 0.040285237 -0.023656728
0000a0 f8 ba f6 3c 45 79 90 3d 5b cb 66 3c 78 13 16 3d
       0.03011845 0.0705438 0.01408657 0.03663966
0000b0 91 18 1a bc 87 d5 1b bd df f2 66 3d 99 05 33 3d
       -0.009405271 -0.038045432 0.056383964 0.04370651
0000c0 d7 86 b1 bd 28 5e 65 bd b4 c5 a3 bd 04 95 a8 bc
       -0.08668297 -0.055997998 -0.07996693 -0.020578869
0000d0 b1 99 88 bd 9a a2 3c bd 00 fd b9 bb 2e 34 91 3d
       -0.06669939 -0.046053506 -0.005675912 0.070900306
0000e0 a2 43 9e 3d d2 f5 94 3c 07 2e 68 3d 47 c3 65 3d
       0.07727744 0.018183623 0.05668452 0.056094434
0000f0 c0 3b 8e bd 16 cf 05 bd 7f fb a2 3a 58 ed c9 bd
       -0.0694499 -0.032668196 0.0012434571 -0.09859723
000100 ff eb be 3c f0 01 02 bd 7f 53 8d bd a2 a7 22 3d
       0.023305891 -0.03174013 -0.06900691 0.03971065
000110 a8 5f 4b bd 39 a2 60 3d de 8d 89 3d 37 21 9c bc
       -0.04965177 0.054842208 0.06716512 -0.019058807
000120 0a 22 15 bd 11 a7 82 3d bc f3 02 bb 4f 34 02 3d
       -0.036409415 0.06379522 -0.0019981703 0.031788167
000130 72 1c a2 3d af f6 c5 bd 95 47 07 bc 01 91 7a 3d
       0.07915582 -0.09666192 -0.008256813 0.061173443
000140 c8 49 f2 bc de b2 57 3d 59 26 e9 bb 1e 7f 91 bd
       -0.029576197 0.052660815 -0.007115167 -0.07104324
000150 d2 44 a1 3d 44 37 8e 3d 35 a9 4d 3d 2c b8 09 bd
       0.078744546 0.06944135 0.050210197 -0.033622906
000160 c7 68 60 3d 91 c4 97 3d cb 91 15 bd 82 35 d5 3d
       0.054787423 0.07410539 -0.036515992 0.104105964
000170 1d 6b 93 bc 32 fa 73 bd 17 28 03 3d 3a 7e ae 3d
       -0.017995412 -0.059564777 0.032020655 0.085201696
000180 07 ae 83 bd a5 2e ac bb 8a b8 38 3c 30 51 2b 3d
       -0.064296775 -0.005254584 0.011274466 0.041825473

fc3.weight f4 [3, 100]
000000 95 61 2b 3d 6e 00 43 bd 33 9f ff ba 2c c5 24 bd
       0.04184111 -0.04760783 -0.0019502401 -0.0402271
000010 90 3d 82 3a 30 d0 0b 3e 57 cf a6 bc 7b 28 c7 3d
       0.000993656 0.13653636 -0.02036254 0.09724518
000020 c6 3c 70 3d 3a 7a 0f 3d 73 65 be 3d 3f 4e 38 3d
       0.058651708 0.035028674 0.09296694 0.044996496
000030 8a 50 05 bd 1d 8a ad bd d3 c6 d4 bd 6d f7 1c bc
       -0.03254751 -0.08473609 -0.10389485 -0.009580475
000040 cd 2a 0b 3e 16 c6 6c 3d 31 ee cd bd 6d f4 e3 bc
       0.13590546 0.057806097 -0.10055197 -0.027826512
000050 2b 62 a5 bd 2d ba d6 3d e9 9e 18 be d5 09 fa bc
       -0.08075365 0.10484729 -0.1490437 -0.030522266
000060 2e ef ea bc fa 43 c4 3d 8f 06 54 bd c5 cf 08 3e
       -0.028678503 0.09583278 -0.051764067 0.13360508
000070 5f b9 d9 3c 5a 6a 7a bd c2 ab 9c bd 35 07 e9 3c
       0.02657765 -0.06113658 -0.07649948 0.02844582
000080 e7 b6 df bc ea 55 2d bd 80 8c 18 3d 50 86 34 3d
       -0.027308894 -0.042318262 0.037243366 0.044073403
000090 3f 6f 71 3d 9d 89 8f bc 52 51 94 bd b9 b9 c5 3c
       0.058943983 -0.017521674 -0.07242073 0.024136411
0000a0 3d 16 15 3c 79 e1 3d bd 4a 14 27 bd 75 42 d8 3d
       0.00909954 -0.046357606 -0.040790834 0.10559551
0000b0 e9 21 b6 bd 60 63 a6 3d 0f 4b 06 bd 6f f2 b5 bd
       -0.088931866 0.08124423 -0.032786425 -0.08884131
0000c0 4f 1d d8 3d 71 28 f5 bd 0c e1 79 bc 9c 55 85 3d
       0.10552465 -0.11970604 -0.015251409 0.06510469
0000d0 d1 e5 31 bd 9f fb ae bd f5 92 8d 3d a4 f8 80 3c
       -0.04343206 -0.08544087 0.069127955 0.015743561
0000e0 54 50 d8 bc 06 82 be 3d f7 c1 ed 3d 8f 77 bf 3d
       -0.026405491 0.09302144 0.116092615 0.09348976
0000f0 d0 76 2a bd 54 4a 71 3d ca 27 16 bc 93 61 a7 bc
       -0.041617215 0.058908775 -0.00916476 -0.02043227
000100 05 31 bb bd 74 a5 9a 3c b0 87 e1 3c b7 d2 94 bd
       -0.09140209 0.018877722 0.027530521 -0.07266753
000110 e7 45 ce 3b 6e 67 95 bd a4 85 ad bd c6 1d 9b 3d
       0.006294954 -0.07295118 -0.084727556 0.07574038
000120 2b 6b 06 bd 4b 39 cd bc 10 f3 95 3d 7f 81 5f bd
       -0.032817047 -0.025051733 0.07321751 -0.054566856
000130 cb ee 7c 3b ba a4 05 be 7e 02 e9 3b 30 b8 69 be
       0.003859448 -0.1305112 0.007110893 -0.22824168
000140 14 fc a9 bc ab c9 20 bd f8 30 57 bb 1e d9 f5 bd
       -0.020750083 -0.039254826 -0.0032835584 -0.120043024
000150 44 97 6a 3d af fc 29 bd 52 ad 35 3e 30 1b 9f 3d
       0.057273164 -0.041500743 0.17741898 0.077688575
000160 bf 81 84 bd e7 e6 fd bc 8f 7d 44 3d c1 99 9c 3d
       -0.064700596 -0.030993892 0.047971305 0.07646514
000170 d0 42 57 3d d2 61 45 bc b9 6f cc bd c9 ba 00 3d
       0.05255395 -0.012047248 -0.09982247 0.031428132
000180 7b bb ad 3d 7e 8a 53 3d ee e7 c9 3d 73 7a de 3d
       0.08483025 0.05164575 0.0985869 0.10863199
000190 ed 67 c2 bd 95 65 bf 3a e7 7f 24 bc 1b 46 23 bd
       -0.094924785 0.0014602417 -0.01004026 -0.03986178
0001a0 83 15 1e 3d 6d 44 c0 3d f6 4d 87 3d 73 56 99 bc
       0.038594734 0.09388051 0.06606667 -0.01871798
0001b0 ca 22 36 bc 7b 39 bb bd 01 7f 51 bc c6 6a ae 3a
       -0.011116693 -0.09141823 -0.012786628 0.0013306967
0001c0 67 8e aa bd 83 7c 33 bd b5 8a 77 3d aa 7f e5 bc
       -0.08327942 -0.043819916 0.060435016 -0.028014977
0001d0 b6 24 6f 3d 12 cc 94 3d 80 cb a8 bd 77 72 ea bc
       0.05838462 0.07265486 -0.082419395 -0.028619034
0001e0 8a 33 c2 bd 13 53 a9 3b 66 f7 db bc 33 a8 e7 bc
       -0.094824865 0.005167374 -0.026851367 -0.028278446
0001f0 7f 39 83 bd 93 50 b3 bc b9 ea b7 3d d5 48 4b 3d
       -0.06407451 -0.021889007 0.08980317 0.049630005
000200 18 43 3f 3c 5a a7 ab 3d 48 ce 09 3c 49 dc a3 3d
       0.011673711 0.08381529 0.008410998 0.080010004
000210 23 3c 2a 3d 7a da d6 bc 01 82 a9 3d 35 d7 c5 bd
       0.041561257 -0.026227225 0.082767494 -0.09660188
000220 f9 80 93 bd fa 32 b1 bd 6e 08 41 3d 18 9b 3b 3d
       -0.07202334 -0.08652301 0.04712718 0.045802206
000230 59 2c 7f 3d 06 4b 3d 3d f0 20 01 bc e9 3d 66 bd
       0.062298153 0.046214126 -0.007881388 -0.056211386
000240 8b d1 9e bd 96 a5 a3 3d 5b 4e 95 bd 77 91 62 bc
       -0.07754811 0.079905674 -0.07290336 -0.013828627
000250 10 3e 41 3c c6 66 cc 3c b4 7a ac bd b0 b0 1a 3c
       0.011794582 0.02495135 -0.08421841 0.00944154
000260 58 9d 0a 3d 18 19 ae bc 40 19 2b 3d 85 21 8b bd
       0.03384146 -0.0212522 0.041772127 -0.06793503
000270 06 76 84 bc c6 c4 c9 bd 4b 16 94 bc ce 1b 94 bd
       -0.01616956 -0.09851985 -0.018077036 -0.07231866
000280 34 8a bf bd 56 65 3e bd 45 0f 7e 3d ff a2 c4 bd
       -0.09352532 -0.04648336 0.06202628 -0.096014015
000290 33 1b 22 bd ce 95 46 3d 6d 5c dc 3d 4c e2 aa 3d
       -0.03957672 0.04848271 0.10759816 0.08343944
0002a0 67 f4 ae bd 01 67 b4 3d 44 d3 c4 bd fc c6 fb bc
       -0.0854271 0.08808709 -0.09610608 -0.030734532
0002b0 66 ff af 3d 49 64 c3 3d 77 b3 a6 bd be cd ca bd
       0.08593635 0.09540612 -0.08139699 -0.099025235
0002c0 69 c4 5b 3c e7 98 bd 3c ac 8c ae bd 83 5c 9b bd
       0.013413527 0.023144199 -0.08522925 -0.075860046
0002d0 b2 c9 2e 3d 65 83 c3 bd 79 05 9b 3c 83 d4 83 bc
       0.04267282 -0.09546546 0.018923508 -0.016092544
0002e0 28 4a ba 3d b2 04 a5 bd fa b8 08 bd cd 8c 86 3d
       0.090961754 -0.08057536 -0.033379532 0.06569824
0002f0 c6 45 c7 bc 08 e7 22 bd 1a ff 8a 3c de 4f 20 bb
       -0.024325263 -0.03977111 0.016967345 -0.0024461667
000300 d7 5a a7 bb a8 78 c2 bd 6a 07 59 3d dd 0e b4 bc
       -0.0051072645 -0.094956696 0.052985586 -0.021979744
000310 4d 43 7a bc 07 73 c6 bd 56 95 1d 3d 2f c2 09 3b
       -0.015274835 -0.096899085 0.038472496 0.0021020283
000320 05 c2 a7 bd bc 18 98 3d 57 76 25 bd 14 b9 1e 3d
       -0.08191303 0.07426593 -0.04039606 0.038750723
000330 eb 76 63 bc db 0d 85 3d 38 ee 92 bc 8c 64 e5 3d
       -0.013883333 0.06496783 -0.017935857 0.112008184
000340 eb a5 87 3d 2a 3d b3 3d 8e 89 58 bd d3 c4 96 3d
       0.06623443 0.087519005 -0.052865557 0.0736176
000350 21 2f 1a be 6a 80 3d bd a2 0a ae 3d 2c 5a 67 bc
       -0.15057041 -0.046265043 0.08498122 -0.01412062
000360 89 bc 52 3d 7f 75 06 bb 94 a3 08 bd 9c 75 88 bd
       0.051449332 -0.002051681 -0.033359125 -0.06663057
000370 6d 88 ab 3d a9 d4 5e bd f7 80 5f bd 0f 07 63 bd
       0.083756305 -0.054402027 -0.05456635 -0.055426653
000380 a5 b8 a9 3c de b2 03 3d ba 71 65 3d 3d 1e 5e bb
       0.020717928 0.032153003 0.05601666 -0.0033892535
000390 76 74 aa 3d 22 63 a3 bd 91 01 8c 3d a4 a2 74 3d
       0.083229944 -0.079778925 0.06836236 0.05972542
0003a0 d0 d0 cb bd dd c8 0a 3d e5 d5 14 bd 2d d0 10 3d
       -0.09951937 0.033882964 -0.0363368 0.035354782
0003b0 e8 5d 58 3a cd dc ab bd 0f a6 04 3d e3 40 9a bd
       0.0008253739 -0.08391724 0.03238493 -0.075319074
0003c0 3f ca c0 bd 88 f0 09 bd 9a a3 35 bd e8 f2 86 3d
       -0.094135754 -0.033676654 -0.044345476 0.065892994
0003d0 f5 c8 f1 3c 51 1a 54 bd d8 f7 f2 bc c6 34 c2 bd
       0.02951477 -0.05178291 -0.029659197 -0.09482722
0003e0 28 50 b9 3d 0d 08 10 bc 3c ca 97 bc e4 03 31 bd
       0.09048492 -0.008790982 -0.01852905 -0.0432166
0003f0 7a 70 ad bd ec ff 62 3d 90 4b bb bd 4f fa 96 3d
       -0.08468719 0.055419847 -0.09145272 0.07371961

fc3.bias f4 [3]
000000 1e cb ab 3c 31 79 b4 3d 23 86 1b bd
       0.020970877 0.08812178 -0.03796972
