model/trained_model/model.pt (torch, 46836 bytes, 6 tensors)

fc1.weight f4 [100, 6]
-0.18152909 0.08895212 0.2816608 -0.4001873 0.058001466 -0.1276504 0.07712624 -0.04216751
-0.26003626 0.34392294 0.20933044 -0.19042446 -0.19612184 -0.28363687 0.008314171 -0.20277189
0.10784381 -0.27190185 0.09309455 -0.106201835 0.06698966 0.2289385 0.35210624 -0.08709081
0.33978134 0.39471027 0.09771869 -0.2776561 0.34122294 0.36103135 0.0914753 -0.34176198
0.20466462 -0.23758626 0.39304116 0.23500979 0.1387779 -0.38768935 -0.40132383 -0.23807569
0.020598594 0.11150759 -0.32366115 0.3090972 0.023621302 -0.069338776 0.2262544 -0.1512663
-0.27315992 -0.112665474 0.24679281 0.24272189 0.3594088 0.06761217 0.14140874 -0.28084907
-0.12919801 0.27949494 0.34575152 -0.33860922 0.2360914 0.3261722 -0.3557361 0.35418132
-0.3854949 0.078094654 -0.39300832 -0.11008059 -0.101089954 0.21560046 0.21572608 -0.24141197
-0.00026102219 0.010300128 -0.2000246 0.34927225 -0.3896213 -0.084330745 0.3143061 -0.3585233
-0.35268325 0.38528824 0.35200343 0.29007635 -0.038018797 0.011299854 -0.40595636 0.01850844
0.39504603 -0.35267395 -0.36893252 -0.032520242 0.058048807 0.43219578 0.14340587 0.022493951
-0.039670996 -0.3634729 -0.23292752 0.106050484 -0.12313936 0.0751175 0.0072171404 -0.27942142
0.13342462 0.19832765 0.031219121 -0.2950645 0.19716714 -0.38003895 -0.28709522 -0.42216772
0.3809195 0.15812069 -0.19622958 -0.10465666 -0.42219117 0.091168374 0.22825214 -0.16266008
-0.34336224 -0.2815626 0.27802512 -0.11143444 -0.3057605 -0.005155976 -0.19510038 0.6432989
0.15143383 -0.2848156 -0.26630417 0.08383007 0.14861579 0.23735088 0.4176819 -0.19710086
-0.41756266 -0.115014896 0.19578142 -0.20181109 -0.015589447 -0.36755052 -0.3234719 0.25746953
0.37959364 0.13503587 -0.2271906 -0.21524845 -0.12995835 -0.37146243 -0.24203739 0.11423468
0.2107576 -0.11424254 -0.19309008 0.16819915 0.33139643 0.3724731 -0.0637524 0.08425839
0.24202248 -0.029055731 -0.28585422 0.20591904 -0.40218854 -0.35736823 -0.10496638 -0.28792286
-0.3576245 -0.079732075 -0.3872199 0.22469676 -0.068885654 0.08993446 -0.13546069 -0.24596642
0.08194977 -0.27512494 0.32073 -0.2787974 -0.036254972 0.13414559 0.01798118 -0.29354587
-0.115886874 0.2920588 0.1026624 0.02806371 0.062340345 0.011499687 0.30706742 0.09910358
0.16807687 -0.30168316 -0.11141547 -0.3528724 -0.35040364 -0.090703145 0.10147566 -0.2978735
0.16395849 0.13800588 0.2760649 -0.1309121 0.40028816 -0.11247115 0.3632224 0.18457031
-0.011035861 -0.177881 0.048790026 -0.4517914 -0.36196056 -0.416517 -0.082222395 0.38758907
-0.28085208 0.2507893 -0.3789005 -0.21789575 -0.13316378 0.12854008 -0.008071656 0.34578824
-0.055299535 -0.026453754 0.23421092 0.21068263 -0.03950972 0.39848 0.049494814 0.05602277
-0.29381865 -0.3524096 0.17949861 -0.349549 -0.37962997 0.44218665 0.1064669 -0.012295012
0.25986168 0.19728757 0.28860468 0.3814197 -0.07651158 0.024728864 0.14797546 0.466206
-0.15561423 -0.048989844 -0.16893612 -0.096572064 0.3252831 0.3908357 0.40683398 0.09573888
00000000: c3e2 39be 872c b63d d835 903e 5ae5 ccbe
00000010: f292 6d3d c9b6 02be 5df4 9d3d d7b7 2cbd
00000020: 7923 85be ab16 b03e b85a 563e a1fe 42be
00000030: 2ad4 48be da38 91be 2938 083c 6fa3 4fbe
00000040: 37dd dc3d b836 8bbe 5ba8 be3d 5980 d9bd
00000050: e031 893d db6e 6a3e 4547 b43e ab5c b2bd
00000060: d2f7 ad3e 7717 ca3e bd20 c83d f128 8ebe
00000070: c6b4 ae3e 1ad9 b83e 6757 bb3d 6dfb aebe
00000080: 9a93 513e d049 73be b13c c93e 68a6 703e
00000090: cb1b 0e3e 387f c6be 517a cdbe 1dca 73be
000000a0: 62be a83c 175e e43d eab6 a5be fd41 9e3e
000000b0: 7681 c13c 7d01 8ebd 3caf 673e 8ee5 1abe
000000c0: 9edb 8bbe 28bd e6bd 41b7 7c3e 168c 783e
000000d0: 6e04 b83e 4078 8a3d 74cd 103e 73cb 8fbe
000000e0: 7c4c 04be f619 8f3e 5806 b13e 305e adbe
000000f0: f2c1 713e 0b00 a73e 0b23 b6be 4157 b53e
00000100: 965f c5be 17f0 9f3d 6338 c9be ef71 e1bd
00000110: 4008 cfbd 5ec6 5c3e 4ce7 5c3e b334 77be
00000120: ced9 88b9 dec1 283c 40d3 4cbe d0d3 b23e
00000130: 717c c7be 99b5 acbd bbec a03e 5e90 b7be
00000140: e692 b4be 8044 c53e cb39 b43e e384 943e
00000150: 99b9 1bbd 0623 393c 83d9 cfbe 039f 973c
00000160: 7943 ca3e ae91 b4be b9e4 bcbe f233 05bd
00000170: 96c4 6d3d c448 dd3e fdd8 123e 3c45 b83c
00000180: 0e7e 22bd 1f19 babe 8d84 6ebe ff30 d93d
00000190: 7d30 fcbd 34d7 993d c37d ec3b 5310 8fbe
000001a0: 77a0 083e 6716 4b3e 3ebf ff3c b212 97be
000001b0: 2fe6 493e 7794 c2be 25fe 92be 5e26 d8be
000001c0: e107 c33e 64ea 213e 68f0 48be 3b56 d6bd
000001d0: 7129 d8be 7cb6 ba3d eeba 693e 5d90 26be
000001e0: 2dcd afbe f928 90be 4f59 8e3e bd37 e4bd
000001f0: a48c 9cbe 76f3 a8bb 65c8 47be 3daf 243f
00000200: 7811 1b3e 5ad3 91be 0559 88be 1aaf ab3d
00000210: bd2e 183e 1c0c 733e 67da d53e cfd4 49be
00000220: c6ca d5be ee8c ebbd ed7a 483e 91a7 4ebe
00000230: e16a 7fbc 952f bcbe 1c9e a5be 0cd3 833e
00000240: 195a c23e d846 0a3e a7a4 68be 176a 5cbe
00000250: cd13 05be 5330 bebe a6d8 77be dff3 e93d
00000260: d7d0 573e fef7 e9bd 68b9 45be 663c 2c3e
00000270: cbac a93e cbb4 be3e 9e90 82bd aa8f ac3d
00000280: bed4 773e 4906 eebc 7c5b 92be 71dc 523e
00000290: a8eb cdbe f8f8 b6be 9df8 d6bd a06a 93be
000002a0: 8f1a b7be 924a a3bd b041 c6be e816 663e
000002b0: ec13 8dbd 8f2f b83d 35b6 0abe 9fde 7bbe
000002c0: 48d5 a73d 2ddd 8cbe b936 a43e 88be 8ebe
000002d0: 1880 14bd 765d 093e 454d 933c a54b 96be
000002e0: 1956 edbd bb88 953e aa40 d23d dee5 e53c
000002f0: 9758 7f3d 2f69 3c3c f137 9d3e d1f6 ca3d
00000300: 581c 2c3e 3776 9abe cb2d e4bd b1ab b4be
00000310: 1b68 b3be 92c2 b9bd 79d2 cf3d e082 98be
00000320: bce4 273e 6a51 0d3e 6158 8d3e d20d 06be
00000330: 92f2 cc3e 4657 e6bd 49f8 b93e 0000 3d3e
00000340: c2cf 34bc 7026 36be 0dd8 473d 3451 e7be
00000350: e552 b9be b741 d5be 3764 a8bd 1372 c63e
00000360: d8cb 8fbe 7567 803e 3fff c1be 1020 5fbe
00000370: 165c 08be 03a0 033e fb3e 04bc 280b b13e
00000380: c481 62bd 8bb5 d8bc fdd4 6f3e 30bd 573e
00000390: f2d4 21bd 9205 cc3e 13bb 4a3d 2278 653d
000003a0: 666f 96be 086f b4be 7cce 373e 16f8 b2be
000003b0: dc5e c2be 4a66 e23e 510b da3d 0571 49bc
000003c0: 970c 853e c105 4a3e fec3 933e 7149 c33e
000003d0: 1ab2 9cbd 3094 ca3c e186 173e 8eb2 ee3e
000003e0: 5659 1fbe 93a9 48bd 97fd 2cbe 93c7 c5bd
000003f0: 828b a63e 9e1b c83e 8b4c d03e bf12 c43d

fc1.bias f4 [100]
-0.29348668 -0.27106473 -0.25545117 -0.34329593 0.0973872 0.15872109 0.3094824 0.17613888
0.18539698 -0.119104646 0.18313965 -0.10874196 -0.17518485 -0.06750839 -0.37136593 0.007973624
-0.31598395 0.26871455 -0.023267321 -0.02537371 0.09414916 -0.26610702 -0.3056468 0.35670123
-0.15259096 0.37001225 0.21862899 -0.27234468 0.3395624 0.09401167 -0.14180814 0.068413176
-0.23710112 -0.19501881 -0.048938327 -0.32810947 -0.40139943 -0.034839485 -0.10442338 -0.2903652
0.41177619 -0.055432 0.3698509 0.41384602 -0.010126456 0.08568922 0.19195019 -0.12641162
0.12083647 -0.4167835 0.21604939 -0.24494624 0.009441104 -0.3534597 -0.13177405 0.24473931
-0.11900564 0.31291154 -0.35484877 0.38082823 0.30531186 -0.2117036 -0.13972168 -0.292921
-0.03112513 0.24300793 -0.27204925 0.3461607 0.27809677 0.029613497 -0.12323825 -0.2129768
0.07709513 0.04623564 0.0021428564 0.38737154 0.40303493 -0.2060504 -0.121151924 0.31445533
0.38374004 -0.3645252 0.36448905 0.3398994 0.016770694 0.00590036 -0.05598062 -0.28870168
-0.23493408 0.11023366 0.096292645 -0.31795126 0.10830978 0.40788186 -0.008564629 0.35316724
-0.1829053 -0.33128405 0.23087521 -0.11171038
00000000: e343 96be ffc8 8abe 7fca 82be 7cc4 afbe
00000010: f172 c73d c887 223e 7a74 9e3e c05d 343e
00000020: b5d8 3d3e 23ed f3bd f688 3b3e 1bb4 debd
00000030: a863 33be d741 8abd ad23 bebe cea3 023c
00000040: a6c8 a1be f494 893e 1c9b bebc 87dc cfbc
00000050: 46d1 c03d 2e3f 88be bd7d 9cbe 8ba1 b63e
00000060: ce40 1cbe 3f72 bd3e 47e0 5f3e c370 8bbe
00000070: 1fdb ad3e 3189 c03d 2736 11be 351c 8c3d
00000080: a3ca 72be 03b3 47be 8e73 48bd f7fd a7be
00000090: 3a84 cdbe d9b3 0ebd eddb d5bd bfaa 94be
000000a0: 54d4 d23e aa0c 63bd 195d bd3e a0e3 d33e
000000b0: 6fe9 25bc d47d af3d 978e 443e 0c72 01be
000000c0: 1c79 f73d a664 d5be 0d3c 5d3e 30d3 7abe
000000d0: dcae 1a3c abf8 b4be c7ef 06be f19c 7a3e
000000e0: 3bb9 f3bd f135 a03e bdae b5be ebfb c23e
000000f0: d651 9c3e d4c8 58be 3313 0fbe bef9 95be
00000100: 21fa febc 12d7 783e 0a4a 8bbe fa3b b13e
00000110: b362 8e3e 0198 f23c 5664 fcbd 9716 5abe
00000120: 0de4 9d3d 9561 3d3d 2a6f 0c3b 9055 c63e
00000130: 985a ce3e e0fe 52be 801e f8bd 4a00 a13e
00000140: 9379 c43e 0ca3 babe 4f9e ba3e 4b07 ae3e
00000150: b262 893c cf57 c13b ef4b 65bd b5d0 93be
00000160: 8f92 70be 2fc2 e13d 1435 c53d 82ca a2be
00000170: 85d1 dd3d e4d5 d03e a852 0cbc 56d2 b43e
00000180: 874b 3bbe 109e a9be 8d6a 6c3e 69c8 e4bd

fc2.weight f4 [100, 100]
-0.0048006894 0.0038899884 -0.07680567 0.07260551 0.060121313 -0.088099584 -0.016854428 0.05020941
0.08228629 0.10594943 -0.020955559 -0.047424305 -0.013003135 0.09201746 0.0046015284 0.11483531
-0.038447764 -0.05955254 0.08614809 -0.04366238 -0.05230079 0.06642405 -0.073912136 -0.1333866
0.02309555 -0.095725946 -0.023852993 -0.08656009 -0.004631778 -0.039579693 -0.11016789 -0.028382221
0.09628779 -0.06742171 0.019984769 -0.17419285 0.062353697 0.051658683 0.025294865 0.1267485
-0.005547056 0.05978185 -0.092117175 0.018949669 0.091991484 -0.10865537 0.11043176 0.16790557
0.015232604 -0.06695677 0.0100000035 0.03842311 -0.09653467 0.003649962 -0.08381986 0.026279466
-0.06269528 0.076409474 -0.21815029 -0.115831256 0.04732894 -0.05928306 -0.15130137 -0.039937057
0.039035443 0.039621416 0.055852998 -0.022504985 0.045446597 0.042682696 -0.07210076 -0.03469927
-0.08390411 0.033018652 -0.00893873 -0.06646009 0.031335052 0.16572964 0.0027665629 -0.061716717
-0.092684224 0.108097725 -0.009126819 -0.05701693 0.05990566 0.090587124 0.073533595 0.021628715
-0.03034172 -0.030027498 -0.029384274 0.078011826 0.09146825 -0.06925464 -0.008000565 -0.037992228
0.09662562 0.09230727 -0.03848941 -0.13016966 0.076635614 -0.04547422 -0.06767354 0.045279644
-0.07498137 0.07832913 -0.030091375 -0.03345258 -0.059292782 -0.06624322 -0.05489787 0.0966507
0.08069684 -0.06881545 -0.12919249 0.15984756 -0.011525571 0.059460726 0.09532978 0.054702386
-0.046201747 0.05569038 -0.04394968 -0.06951369 0.06283572 -0.02563478 0.057628408 -0.03997406
0.020545172 0.012232301 -0.024646368 -0.048788376 -0.09308918 -0.07688027 0.007856684 0.01583116
-0.054136503 -0.031207826 0.012272779 0.09000148 0.03920721 0.04231293 -0.09736325 -0.08050118
0.09331643 0.04133855 0.023446444 -0.111457154 0.04769391 0.08591518 0.07351114 -0.06088997
0.08746114 -0.053852823 0.00010636182 0.0668656 0.1281471 0.06314541 -0.104708165 0.006687502
-0.07268806 0.07522546 0.04441756 0.041786212 -0.04248151 0.008973712 -0.035339925 0.058575705
0.013739133 0.017721254 -0.046838533 0.12916818 -0.03144268 -0.05598235 0.098991476 0.07789158
0.01714553 -0.048970412 -0.0663203 -0.05945453 0.0028330581 -0.11845536 -0.05381175 -0.04155893
-0.0114074 -0.0011598921 0.02417984 0.055830926 0.07059239 0.08870877 0.08402527 0.08279091
-0.007452029 -0.017583754 -0.020289706 0.076735586 -0.017451156 0.027330982 -0.015811052 -0.007445963
-0.07536776 -0.00846798 -0.082472324 -0.10346642 -0.07935376 -0.0073959697 -0.017978866 0.09372896
0.080498435 0.0026290491 0.025250377 -0.026798654 0.00981916 0.036375783 -0.04237776 0.17946458
0.0992373 0.013981029 -0.006903806 0.0832509 -0.068547614 0.18064757 -0.14343704 -0.023465896
0.034683853 0.06720272 -0.06678945 0.043642998 0.09133674 0.0058958675 -0.10561817 0.051819637
0.009761928 -0.03246031 -0.045138143 0.03935249 -0.02164998 0.077517696 -0.007405749 0.06380158
0.086508796 0.041398685 0.04661006 0.0060911207 0.09110983 -0.0699059 0.05241972 0.044131845
-0.027589101 0.11654661 0.05502198 0.009188299 -0.084343806 -0.07452487 -0.03688005 -0.047156688
00000000: 1a4f 9dbb 2def 7e3b 4b4c 9dbd 33b2 943d
00000010: c441 763d 8e6d b4bd 4c12 8abc 62a8 4d3d
00000020: b785 a83d 04fc d83d feaa abbc fd3f 42bd
00000030: 1a0b 55bc a673 bc3d 6bc8 963b c62e eb3d
00000040: 677b 1dbd 5ded 73bd 696e b03d 53d7 32bd
00000050: 5a39 56bd 5509 883d 3f5f 97bd 7f96 08be
00000060: e132 bd3c f70b c4bd 5a67 c3bc 6b46 b1bd
00000070: 2cc6 97bb 511e 22bd b49f e1bd d581 e8bc
00000080: 8832 c53d 6514 8abd 19b7 a33c 9c5f 32be
00000090: 9766 7f3d 0e98 533d 2d37 cf3c 5cca 013e
000000a0: 14c4 b5bb d0dd 743d eea7 bcbd 563c 9b3c
000000b0: 0866 bc3d b586 debd 0c2a e23d 70ef 2b3e
000000c0: 2c92 793c a220 89bd 0ed7 233c 8d61 1d3d
000000d0: f8b3 c5bd 3334 6f3b bfa9 abbd 0948 d73c
000000e0: 6266 80bd 927c 9c3d ca62 5fbe f038 edbd
000000f0: fedb 413d cbd2 72bd bfee 1abe 0a95 23bd
00000100: a1e3 1f3d 114a 223d 1dc6 643d 605c b8bc
00000110: 3626 3a3d 0dd4 2e3d 90a9 93bd d220 0ebd
00000120: ebd5 abbd 913e 073d c073 12bc 3a1c 88bd
00000130: 2f59 003d 08b5 293e 394f 353b abca 7cbd
00000140: 3ad1 bdbd 5762 dd3d a788 15bc 968a 69bd
00000150: a35f 753d be85 b93d c898 963d b42e b13c
00000160: 338f f8bc 3afc f5bc 4ab7 f0bc aac4 9f3d
00000170: b553 bb3d 60d5 8dbd cd14 03bc bd9d 1bbd
00000180: a7e3 c53d 980b bd3d 12a7 1dbd 324b 05be
00000190: 22f3 9c3d 2d43 3abd 6d98 8abd 2677 393d
000001a0: d58f 99bd 066b a03d 3082 f6bc 9305 09bd
000001b0: fddc 72bd 86aa 87bd 97dc 60bd cdf0 c53d
000001c0: 6344 a53d 1def 8cbd 094b 04be 14af 233e
000001d0: c0d5 3cbc 178d 733d 423c c33d 9c0f 603d
000001e0: 0b3e 3dbd 991b 643d 9404 34bd 325d 8ebd
000001f0: 04b0 803d 0800 d2bc c40b 6c3d d7bb 23bd
00000200: 594e a83c fd69 483c 2ee7 c9bc 52d6 47bd
00000210: 8aa5 bebd 6773 9dbd 52b9 003c 59b0 813c
00000220: 3dbe 5dbd 8ea7 ffbc c413 493c b252 b83d
00000230: bd97 203d 5350 2d3d 6266 c7bd cddd a4bd
00000240: af1c bf3d 9d52 293d c212 c03c a643 e4bd
00000250: b05a 433d 4cf4 af3d 028d 963d c367 79bd
00000260: d31e b33d c794 5cbd 910e df38 d5f0 883d
00000270: fe38 033e 6152 813d 3c71 d6bd d522 db3b
00000280: 7add 94bd ce0f 9a3d 30ef 353d 0528 2b3d
00000290: 1801 2ebd 7a06 133c 99c0 10bd 14ed 6f3d
000002a0: 1a1a 613c 2a2c 913c c3d9 3fbd aa44 043e
000002b0: 0aca 00bd c04d 65bd 0bbc ca3d 9f85 9f3d
000002c0: c874 8c3c 3395 48bd f0d2 87bd 9886 73bd
000002d0: d4aa 393b b998 f2bd b669 5cbd b239 2abd
000002e0: 1ae6 3abc 8507 98ba cd14 c63c f8ae 643d
000002f0: be92 903d f2ac b53d 7115 ac3d 488e a93d
00000300: 2630 f4bb ce0b 90bc 9936 a6bc 8c27 9d3d
00000310: baf5 8ebc 39e5 df3c 2e86 81bc 44fd f3bb
00000320: 6a5a 9abd 48bd 0abc 40e7 a8bd 34e6 d3bd
00000330: 3984 a2bd e459 f2bb 6a48 93bc f8f4 bf3d
00000340: 5ddc a43d 204c 2c3b e1d9 ce3c da88 dbbc
00000350: 8be0 203c c6fe 143d 4d94 2dbd 90c5 373e
00000360: ed3c cb3d b010 653c 5239 e2bb 737f aa3d
00000370: b162 8cbd adfb 383e 29e1 12be 8d3b c0bc
00000380: a810 0e3d 94a1 893d e8c8 88bd 00c3 323d
00000390: c20e bb3d 1f32 c13b 574e d8bd d440 543d
000003a0: 7ef0 1f3c 1af5 04bd c6e2 38bd 1430 213d
000003b0: 4d5b b1bc 99c1 9e3d edab f2bb 67aa 823d
000003c0: 862b b13d ab91 293d 31ea 3e3d 0698 c73b
000003d0: ca97 ba3d d32a 8fbd 0fb6 563d 98c3 343d
000003e0: 8a02 e2bc fdaf ee3d ba5e 613d 858a 163c
000003f0: 72bc acbd 7fa0 98bd 890f 17bd 5f27 41bd

fc2.bias f4 [100]
-0.05043846 -0.08381414 0.055405896 -0.026355444 0.079454355 -0.09523369 0.075538225 0.06597736
0.057965275 0.012318835 0.0013893583 -0.00274668 -0.008044404 -0.03143866 0.06448922 -0.07113238
-0.057370435 0.0120436195 -0.041159365 -0.0075029423 0.025909405 0.005081674 -0.06752333 -0.09974256
0.053216547 0.053350326 -0.042785447 -0.08589192 0.08242 -0.09002034 0.030697731 0.0728494
-0.083822854 0.044523165 -0.09494151 -0.0118760755 -0.0053647915 -0.02137521 -0.045225643 0.06326718
-0.03477338 -0.026903708 -0.057424083 -0.00897851 -0.09639924 -0.07095367 -0.08570761 0.06117739
-0.012295772 -0.054707896 -0.08913064 0.011314497 0.029876363 0.087691 -0.0762254 -0.06757951
0.0037522784 0.059285894 0.09826504 0.017969271 0.095439106 -0.031519033 -0.015353075 0.0314063
0.035298068 -0.09497325 0.05785252 -0.09564897 0.023325367 0.030142223 -0.051558074 0.0631187
0.06961478 -0.0047121 -0.056967627 -0.03911818 0.047504272 -0.079119384 -0.06532567 0.003888278
-0.011863656 0.06730466 -0.04307152 -0.061807044 0.04926263 0.0029825694 -0.09997976 -0.0041904715
0.10991639 -0.003741475 -0.042087246 -0.096730106 -0.08119954 -0.057048153 -0.023686165 -0.04743358
8.3503764e-05 -0.0039194934 -0.033758283 -0.034154117
00000000: 8f98 4ebd bfa6 abbd 4bf1 623d 5fe7 d7bc
00000010: f7b8 a23d e209 c3bd c9b3 9a3d 231f 873d
00000020: ff6c 6d3d f0d4 493c 211b b63a a501 34bb
00000030: adcc 03bc d3c5 00bd ed12 843d daad 91bd
00000040: 43fd 6abd 9a52 453c b996 28bd 3edb f5bb
00000050: f63f d43c 2c84 a63b ac49 8abd d445 ccbd
00000060: 98f9 593d df85 5a3d cb3f 2fbd 1ae8 afbd
00000070: d1cb a83d 965c b8bd cf79 fb3c 1132 953d
00000080: 51ab abbd ec5d 363d b270 c2bd df93 42bc
00000090: 22cb afbb 101b afbc 863e 39bd 3992 813d
000000a0: 886e 0ebd 2a65 dcbc 8435 6bbd 9a1a 13bc
000000b0: f76c c5bd 2850 91bd 7987 afbd 2595 7a3d
000000c0: 3574 49bc 6315 60bd 208a b6bd 7160 393c
000000d0: 46bf f43c 5797 b33d 101c 9cbd 2067 8abd
000000e0: c9e8 753b c4d5 723d 2e3f c93d 4b34 933c
000000f0: 9475 c33d 1a1a 01bd 778b 7bbc e4a3 003d
00000100: b594 103d 5681 c2bd c4f6 6c3d 9be3 c3bd
00000110: d714 bf3c d3ec f63c 8f2e 53bd 6144 813d
00000120: 3292 8e3d f667 9abb e356 69bd 623a 20bd
00000130: d793 423d 5809 a2bd 77c9 85bd 7bd2 7e3b
00000140: c85f 42bc 07d7 893d c36b 30bd 6229 7dbd
00000150: 9dc7 493d 3677 433b 30c2 ccbd 3950 89bb
00000160: d81b e13d 8933 75bb ad63 2cbd 6f1a c6bd
00000170: f24b a6bd 53ab 69bd 7d09 c2bc b749 42bd
00000180: be1e af38 186f 80bb 2046 0abd 30e5 0bbd

fc3.weight f4 [3, 100]
0.17549255 0.026178088 -0.09439193 -0.0795603 0.018933292 -0.08368542 0.005872625 0.039984155
-0.05387852 -0.06579116 -0.087526746 -0.11542486 0.029631274 -0.032214906 -0.03969384 -0.054698527
0.022701884 -0.018681085 -0.066005595 0.016921338 0.057685796 -0.09701532 0.06738222 -0.028417237
0.03962236 0.04083863 0.08602985 -0.051276397 0.03798466 0.037932873 -0.08093121 -0.07728601
-0.026996845 -0.03190021 -0.092298284 0.05806317 -0.19120927 -0.07812985 -0.034008127 -0.03193326
0.07102447 -0.07474423 -0.07069585 -0.006128681 -0.09428811 -0.0012433053 -0.047890626 -0.026919873
-0.054076802 0.064649455 -0.044576038 0.051247515 -0.07379867 0.08724831 0.033910897 0.026663784
-0.10542674 0.098317064 -0.034412418 -0.034422632 0.046128254 -0.00092448 0.08704188 0.060381684
-0.06893677 0.08536054 0.014638895 -0.06492487 0.02507797 0.07214593 -0.065567665 -0.09092013
0.001869183 0.09175494 -0.057555355 -0.07865239 0.006740415 0.12850484 0.12057311 0.03597172
-0.010877451 -0.010668482 0.07110324 0.023671957 -0.043766987 0.027933788 -0.058979597 -0.01799027
-0.059898514 -0.013919025 -0.026711453 -0.020753896 -0.048089422 0.22791235 0.05432994 -0.06130885
-0.07480452 -0.12548034 -0.15792288 0.02654997 0.009682128 -0.097953424 -0.086244166 -0.032609228
-0.03503709 -0.013674415 -0.04049377 -0.071177214 -0.063916214 -0.040425263 0.10146497 -0.022548493
0.07245157 -0.064331435 0.08570765 -0.029135896 0.025888503 -0.009491718 0.08758672 0.031425416
-0.07865265 -0.065884046 -0.09737083 -0.056504738 -0.043668684 0.073049195 -0.025888592 -0.060155034
-0.08668455 -0.02214198 -0.019764757 -0.049897846 0.01099788 0.03445657 -0.03989879 -0.0047741537
0.06535717 0.08026407 -0.0040243114 -0.09685143 -0.044518583 0.0772582 0.07365142 -0.020840717
0.03271097 0.06058384 0.068767585 0.013439739 0.0681093 -0.06663332 -0.08700251 0.057875652
0.06991867 -0.002165732 0.08393264 0.05541888 -0.053467818 -0.032176558 0.07205615 0.07594326
0.05028464 0.047083165 0.008791072 0.025043894 -0.06979084 0.0496065 -0.013386919 0.091910616
0.08516433 0.042637035 -0.019061796 0.038036924 0.07569219 -0.013012791 -0.0014703631 -0.033710122
-0.084636115 -0.07196157 0.009264715 -0.08346546 -0.016793674 0.008526635 0.039250042 0.020707164
-0.07496667 -0.024404222 -0.044319034 0.08532699 -0.00915554 -0.027468126 0.036399152 0.041738
-0.08954872 -0.050494693 -0.04974208 -0.092746705 0.03494224 0.00879747 0.09166242 -0.009839535
-0.015787464 -0.07559564 -0.10101504 0.028862316 -0.008013456 -0.06209556 0.03735326 0.06589608
-0.27299115 -0.029014133 0.28107893 0.098841205 -0.012042225 0.03687207 -0.09413785 0.061867584
-0.059433974 -0.026757216 0.10813399 0.08582867 -0.0925477 -0.109590486 -0.06106213 0.0748632
-0.10132052 0.0045997496 -0.052501764 0.008783317 0.0850919 0.007882803 -0.027039025 -0.050639376
-0.042359944 0.05811773 0.104114965 -0.0172199 0.038446415 -0.12487841 -0.056381457 -0.06869203
0.09864765 0.07159971 -0.061268374 0.07551607 -0.0019723536 0.07531952 0.06178089 -0.05793401
0.0027376546 0.07842691 0.019751752 -0.04434566 0.09630055 0.09292881 0.04369248 -0.09462547
00000000: 52b4 333e 6e73 d63c 8e50 c1bd 83f0 a2bd
00000010: fe19 9b3c 4363 abbd 266f c03b 6dc6 233d
00000020: b9af 5cbd 84bd 86bd 3941 b3bd de63 ecbd
00000030: 49bd f23c c7f3 03bd 0296 22bd 900b 60bd
00000040: 4df9 b93c 1309 99bc f12d 87bd 9e9e 8a3c
00000050: f147 6c3d f8af c6bd b0ff 893d 44cb e8bc
00000060: 0e4b 223d 6846 273d 6b30 b03d 3307 52bd
00000070: ce95 1b3d 805f 1b3d 43bf a5bd 2148 9ebd
00000080: 7d28 ddbc cba9 02bd e206 bdbd a6d3 6d3d
00000090: 5dcc 43be 8b02 a0bd 1b4c 0bbd 73cc 02bd
000000a0: 4775 913d 8113 99bd fcc8 90bd 1ad3 c8bb
000000b0: 201a c1bd 67f6 a2ba f628 44bd 1187 dcbc
000000c0: a37f 5dbd ef66 843d 5d95 36bd eae8 513d
000000d0: c223 97bd 3eaf b23d 27e6 0a3d 026e da3c
000000e0: fae9 d7bd 755a c93d 09f4 0cbd bffe 0cbd
000000f0: fbf0 3c3d cd58 72ba 0343 b23d c952 773d
00000100: b92e 8dbd 82d1 ae3d fad7 6f3c 55f7 84bd
00000110: 5170 cd3c 3fc1 933d 5748 86bd 5534 babd
00000120: 60ff f43a 04ea bb3d 2abf 6bbd 8114 a1bd
00000130: b3de dc3b c696 033e 09ef f63d 1557 133d
00000140: 5637 32bc dbca 2ebc 939e 913d b1eb c13c
00000150: 0345 33bd 66d5 e43c 9794 71bd 5560 93bc
00000160: 2558 75bd 9f0c 64bc fad1 dabc 1304 aabc
00000170: 6af9 44bd db61 693e 1289 5e3d fd1e 7bbd
00000180: 1d33 99bd eb7d 00be 89b6 21be 537f d93c
00000190: caa1 1e3c ce9b c8bd c8a0 b0bd 4191 05bd
000001a0: 0d83 0fbd a70a 60bc ccdc 25bd 5cc5 91bd
000001b0: 81e6 82bd f694 25bd decc cf3d 9eb7 b8bc
000001c0: 7d61 943d 33c0 83bd 7e87 af3d 67ae eebc
000001d0: 2014 d43c 2783 1bbc ab60 b33d f0b7 003d
000001e0: a414 a1bd 37ee 86bd 5c6a c7bd 8371 67bd
000001f0: efdd 32bd d19a 953d 5014 d4bc 2065 76bd
00000200: ab87 b1bd 1963 b5bc b3e9 a1bc af61 4cbd
00000210: 7430 343c 5522 0d3d ea6c 23bd 8170 9cbb
00000220: fbd9 853d 7d61 a43d 5fde 83bb 0b5a c6bd
00000230: 1e59 36bd 8c39 9e3d 8ed6 963d 27ba aabc
00000240: f0fb 053d c326 783d 05d6 8c3d 5a32 5c3c
00000250: e47c 8b3d 0d77 88bd 5f2e b2bd 050f 6d3d
00000260: 8531 8f3d f4ee 0dbb e0e4 ab3d e8fe 623d
00000270: 1201 5bbd 91cb 03bd 2d92 933d 2488 9b3d
00000280: 44f7 4d3d 47da 403d 6e08 103c da28 cd3c
00000290: 80ee 8ebd 2f30 4b3d cf54 5bbc a23b bc3d
000002a0: a36a ae3d 2ca4 2e3d 7c27 9cbc 9bcc 1b3d
000002b0: 8204 9b3d 9a33 55bc 33b9 c0ba a013 0abd
000002c0: b355 adbd 9660 93bd 08cb 173c f0ef aabd
000002d0: e392 89bc 4db3 0b3c a7c4 203d 12a2 a93c
000002e0: 2088 99bd 5deb c7bc e087 35bd ebbf ae3d
000002f0: 1e01 16bc d604 e1bc 4717 153d 77f5 2a3d
00000300: 5265 b7bd 86d3 4ebd 5abe 4bbd fcf1 bdbd
00000310: 981f 0f3d 4323 103c 82b9 bb3d 0036 21bc
00000320: b654 81bc e3d1 9abd f9e0 cebd aa70 ec3c
00000330: df4a 03bc ea57 7ebd bbff 183d 86f4 863d
00000340: 7fc5 8bbe 0caf edbc 94e9 8f3e 426d ca3d
00000350: c14c 45bc 2b07 173d 58cb c0bd dd68 7d3d
00000360: 0a71 73bd f331 dbbc 5a75 dd3d f1c6 af3d
00000370: a689 bdbd fa70 e0bd 491c 7abd e151 993d
00000380: 2281 cfbd 7fb9 963b 170c 57bd e7e7 0f3c
00000390: a944 ae3d df26 013c f280 ddbc 3c6b 4fbd
000003a0: 9f81 2dbd db0c 6e3d 3a3a d53d bf10 8dbc
000003b0: fd79 1d3d 40c0 ffbd 3ef0 66bd 68ae 8cbd
000003c0: c707 ca3d dea2 923d 8cf4 7abd 2ba8 9a3d
000003d0: 9a42 01bb 1f41 9a3d f50d 7d3d 364c 6dbd
000003e0: 396a 333b 4a9e a03d 6dce a13c cba3 35bd
000003f0: 3939 c53d 7651 be3d e3f6 323d 00cb c1bd

fc3.bias f4 [3]
0.06910409 -0.07951211 0.04310401
00000000: 7286 8d3d 3fd7 a2bd d58d 303d
