model/trained_model/model.pt (torch, 49268 bytes, 6 tensors)

fc1.weight f4 [100, 9]
00000000: 42c8 293e 6081 373e e8fc 013d 4b20 c1bd
00000010: 7c58 bdbe 3695 273e 6205 9abe 433d 223e
00000020: d4ff 42be dd53 31bd 852d f2bd cee1 93be
00000030: 0455 46bd e67e 1b3e 0e1a 923c d728 81bd
00000040: 8f17 2a3e 5709 0dbe fcdd 32be 6f28 05bf
00000050: 3da8 053b f7e2 cbbe 0b2a 38bd 271b e8bd
00000060: 333b c9be a3e5 783d 9952 5a3e 5cde 963e
00000070: d9d7 87be 9406 ecbc c827 053e 54bc 07be
00000080: 2c7d 423e ef8b 263d 477b ffbd 00f9 523e
00000090: e392 2b3e 8129 573e 4ac4 1e3e b243 e53d
000000a0: d289 82be 3d4f bb3d d607 803e dfd1 a73d
000000b0: 6558 033b ccb7 063e 4b87 47bc f6db a6bd
000000c0: 0648 09bd c3cb ab3d c047 133e 07f9 4bbe
000000d0: 8405 8ebe 4b59 a0be 2d01 12be 0b23 e23e
000000e0: f236 c7be a799 cbbd c75b 5ebe 46cd b3bd
000000f0: 4485 69be b6bb b9be 9696 ec3d 6745 4e3e
00000100: 25e6 ed3e 4474 ea3d 70c3 92be 83e1 09bf
00000110: 0879 c0bd 81a7 c03d df04 893e d708 533e
00000120: 0e54 713e 297b e33e b2b7 993d 97c0 b93d
00000130: db45 e13c 7bcd 673e e2bd 493e 9d20 7b3d
00000140: 18e1 b4be 4436 81bd 4dd9 6bbd dded e73d
00000150: 22b9 763e bb0f 41be 5686 7a3e c4f7 113d
00000160: bb64 8fbe a6a9 a3be 80c0 013e 5636 5ebc
00000170: 160c 68bd 00ee 75bd 4b07 003d f695 7fbd
00000180: cb8b 97bd 0086 06bb ee8d 6fbe 7f44 a23e
00000190: 34d0 793e eb67 4ebe de00 80be 5307 70be
000001a0: 25d5 4ebe 8e1e 0bbd 04af adbd 5543 a03e
000001b0: 9113 743b 3c80 d83e 3061 393e e88e c03c
000001c0: 6bee 8abe c53e b13c e39d 8fbd 9f03 133e
000001d0: 6e35 483e ca1b 79be 360d f2be 22db 68be
000001e0: 81ae 88be 93cf 2b3f 04bd 393e 46c8 503e
000001f0: c64d 3b3e ef5b 803e ba61 843e 4ed9 913d
00000200: b805 133e c0a7 bbbe 3a05 29bd 1bcc 76be
00000210: b5b6 c73d 96d7 a7bd 2446 253e 2763 8c3e
00000220: c313 203d 998b ce3d fb11 dc3a 2cba 86bb
00000230: 1b99 283e f66d 46bd 6866 9ebd 90ae 413e
00000240: b3fc d83d 2f77 0a3f e8aa 60be 7567 7d3e
00000250: 0b15 f2be 7f9d 46be ee4c 03be b338 413e
00000260: 89a9 74bd 40fe 90be f994 cabc 723c 75bb
00000270: ae53 a03e 5812 fcbd b86d e5bd 7a33 313d
00000280: cc88 9cbd 2dfc a53e 9cf3 b2be 307a 773e
00000290: b9f2 39be d050 b23e cf3a a2be e4fc 8abe
000002a0: eadc 10be 1cca 453e 4746 a63d e48c 34be
000002b0: 2008 c7be c83c a23c d66b 333e 9aaa aa3e
000002c0: 8600 08be 5cde 52be b923 5d3e 2075 eb3a
000002d0: 2826 043e 8dc0 70be eb2e 2dbe 3063 8d3e
000002e0: 84b2 edbd a804 153e 362a 95be 12a0 07be
000002f0: 2bd2 96bc 746f 643d ce16 d03e 0427 a83a
00000300: ee50 153e 0372 01bf f0c7 a43e a794 84be
00000310: 79c8 e6bd 21d0 9c3c a79b 123e deb9 103e
00000320: 651c e73d 2ac8 f1bd a9d8 023c d36f b63e
00000330: dca3 a4be 6b6c b7bd 96b8 843e 02ff 923d
00000340: 5777 6abf d7f6 8ebd 1826 073e c538 473f
00000350: a5b9 c83e c890 73be 6fff fb3c 45b9 443e
00000360: 221f 303e 5059 60be 22ee 753d a5de 1c3d
00000370: 530d f93e 8574 1fbe 35f5 b8be f949 5f3e
00000380: 7b13 903e 6999 9e3d 3e1d f9be ed0b d5bd
00000390: bdb1 1e3d 87ab 503e 839c cd3d 762e 5c3e
000003a0: 912a 6ebd 0dcb 5dbe 2e10 12be 7fa5 3bbd
000003b0: 7035 ccbe b726 6cbe a9c8 d4be 6d25 463d
000003c0: ff67 b5be a566 98bd fbea 823e f145 f13d
000003d0: 8cd6 43bf eaa7 633d 8dfa 99be 62b9 553f
000003e0: 600e f7bd 8d37 94be 55f9 c8bd 4962 5d3e
000003f0: 38ee 95be 4ad8 0abf c172 a43e b497 d7bd
0.16580299 0.17920446 0.03173533 -0.094299875 -0.3698157 0.16365513 -0.30082232 0.15843682
-0.19042903 -0.04329287 -0.118250884 -0.28883213 -0.04842092 0.15185127 0.01783469 -0.06306618
0.1661055 -0.13773094 -0.17467493 -0.5201482 0.0020394467 -0.39821598 -0.04496197 -0.11333304
-0.39302978 0.060765874 0.21320571 0.29466522 -0.26531866 -0.02881173 0.13003457 -0.13255435
0.18993062 0.040660795 -0.12474685 0.20602798 0.16755252 0.21011926 0.15504566 0.111945525
-0.25495774 0.09145973 0.25005978 0.081943266 0.00200417 0.1315605 -0.012178252 -0.08147423
-0.033515953 0.08388474 0.14382839 -0.19919215 -0.27738583 -0.31318125 -0.14258261 0.4416736
-0.38909107 -0.09941416 -0.21714698 -0.08779387 -0.22804743 -0.36276025 0.115521595 0.20143662
0.4646465 0.11447957 -0.28664732 -0.5385973 -0.09398085 0.09406949 0.2676153 0.20608841
0.2356722 0.444299 0.0750574 0.09069937 0.02749913 0.22636978 0.19701341 0.0613104
-0.35327983 -0.063091785 -0.05758028 0.11324666 0.2409406 -0.18853657 0.24465308 0.03563668
-0.2800654 -0.3196537 0.12671089 -0.013562759 -0.05665215 -0.060041428 0.031256955 -0.062398873
-0.0739971 -0.0020526648 -0.23393986 0.31692883 0.2439583 -0.20156829 -0.25000662 -0.23440294
-0.20198496 -0.033964686 -0.08480647 0.3130137 0.0037243108 0.42285335 0.1810348 0.023505643
-0.27135023 0.021636376 -0.070125364 0.1435685 0.19551632 -0.24327007 -0.47275704 -0.22739843
-0.26695636 0.6711361 0.1813851 0.20388898 0.18291387 0.2507014 0.2585581 0.07121526
0.1435765 -0.3665142 -0.04126475 -0.24101298 0.097516455 -0.08195417 0.16140038 0.27419397
0.039081346 0.1008522 0.0016790027 -0.004111549 0.16464655 -0.04844471 -0.07734376 0.18914247
0.105950736 0.5408811 -0.21940196 0.24746497 -0.4728168 -0.19396017 -0.12822315 0.18869285
-0.059731994 -0.28318977 -0.024729239 -0.0037420061 0.31313843 -0.12308186 -0.11202568 0.043261983
-0.076432794 0.32418957 -0.34951484 0.24167705 -0.18158998 0.3482728 -0.31685492 -0.27146065
-0.14146772 0.1931538 0.08118873 -0.1763187 -0.38873386 0.019804373 0.17521605 0.33333284
-0.1328145 -0.20592636 0.21595658 0.0017963983 0.1290518 -0.23510952 -0.16912429 0.27614737
-0.11606315 0.14552557 -0.29133767 -0.13244656 -0.018410763 0.055770352 0.406424 0.001282901
0.14581653 -0.50564593 0.3218379 -0.25894663 -0.11268706 0.019142212 0.14317189 0.14133403
0.11284713 -0.118057564 0.007986226 0.3563219 -0.32156265 -0.08956226 0.25922078 0.07177545
-0.9158835 -0.06980675 0.13198125 0.77821 0.39204136 -0.23785698 0.030761449 0.192113
0.17199376 -0.2190907 0.060041554 0.038298268 0.48642978 -0.15571792 -0.36124578 0.21805562
0.28139862 0.077441044 -0.48655123 -0.10402665 0.038743723 0.20377932 0.10039618 0.21502098
-0.058146063 -0.21659489 -0.14263985 -0.045812126 -0.3988452 -0.23061644 -0.41559342 0.048375536
-0.35430905 -0.07441453 0.255699 0.117809184 -0.7649925 0.055580057 -0.30073968 0.83485997
-0.12063289 -0.28948632 -0.09813181 0.21619524 -0.2928331 -0.5423628 0.321188 -0.10526982

fc1.bias f4 [100]
00000000: a427 1d3d 2e0c f23d 412e d0bd 6237 7e3d
00000010: 321b 78bd 3192 143e 4ff5 bebd 0289 0e3e
00000020: f083 06be 44fb 7c3e b308 a1be fbb3 a13e
00000030: e2f6 843e 1786 533e 1fe9 7c3e 76c9 303e
00000040: 3196 a23e 1a7f bc3d 8125 cfbd 7034 433d
00000050: 396b a53d 4330 2c3e 1c30 98be 3478 afbd
00000060: 6e3a 8bbc 7c3d b73d 2859 7ebe 093e a6bd
00000070: ae31 613e a8bc 66be 0f33 ff3d 2745 41be
00000080: 625f a93d a21a 063d 3626 1b3e e1c0 1b3b
00000090: 30f6 873e b16a 69be e0bc 99be 8d94 38bd
000000a0: cdeb 293e 6a9d c7bc ffab 883e df65 9a3e
000000b0: 5352 6d3e de8d 103e e154 983b ee4f 66be
000000c0: 3362 4bbe ab6d eb3b 6d5d 443d e9c0 8a3e
000000d0: 2335 e9bd 22ae fb3c b7f9 8abe 4413 363e
000000e0: 7c90 a33d ef04 e33d fef4 693a 08b4 82be
000000f0: 1bc8 403e 5fc8 9ebe a786 7b3d 57c2 033d
00000100: 4cca a03d 99cf c73d 37ef 643e b00a 5cbe
00000110: f4c3 64be 511e 44bd a9b5 4cbe bcae c53d
00000120: 4ab8 05be 7eb2 19bc 852a a43c bdb3 6d3e
00000130: 7257 50be f988 fdbd 6284 353e 7c47 543e
00000140: 6203 433e 85e9 10bd f663 aa3d 6587 65be
00000150: dabf 8b3d 2445 3bbe c9f1 88bc e374 8bbe
00000160: da47 1b3d a165 13be fc67 12bd 72cd 03bd
00000170: 93cd 0d3e 42e9 15bd e520 63bb 40f2 403e
00000180: 24aa 7c3e dd9f 96be 29b9 83bd a57d a2be
0.038367882 0.11818729 -0.10165072 0.062064536 -0.06057281 0.14508893 -0.09324133 0.13919452
-0.13136268 0.24705225 -0.3145195 0.31582627 0.25969607 0.2065662 0.24698304 0.17264351
0.31755212 0.0920393 -0.10114575 0.04765743 0.08077092 0.16815285 -0.29724205 -0.08567849
-0.016995635 0.08947274 -0.24838698 -0.08117301 0.21991608 -0.22532904 0.124609105 -0.18874036
0.08270146 0.032740243 0.15151295 0.0023766088 0.26555014 -0.22794606 -0.30026913 -0.045063544
0.16593857 -0.024367053 0.26693723 0.30155846 0.23175935 0.14116618 0.00464879 -0.22491428
-0.19861679 0.0071847043 0.04794066 0.27100304 -0.11387088 0.030722681 -0.27143642 0.17780787
0.079865426 0.110849254 0.00089247513 -0.25527978 0.18826334 -0.31012246 0.06140771 0.03216776
0.07851085 0.09756393 0.22356878 -0.21488452 -0.22340375 -0.047880474 -0.19991173 0.096524686
-0.13058582 -0.009380935 0.020039806 0.23213096 -0.20345858 -0.12379641 0.17726281 0.20730394
0.19044259 -0.03537895 0.08319847 -0.2241493 0.06823702 -0.18288094 -0.016716855 -0.27237615
0.03791032 -0.14394237 -0.0357437 -0.03217835 0.13847952 -0.036599405 -0.0034657058 0.18842411
0.24674278 -0.2941884 -0.06431801 -0.31736484

fc2.weight f4 [100, 100]
00000000: 70ef 9f3d d602 a83b a46b 6abe 65a9 ec3b
00000010: 6f1e f6bc f522 e43d bdc9 883d 2252 d03d
00000020: 664b 4f3d 4466 6ebc 8d6f 2cbc d1ae de3d
00000030: 4b44 2d3d b89f 4bbe ab79 efbc 50ef 59bd
00000040: f5bd 80bd 8594 3c3d 26b7 183d 5d5e 553d
00000050: 57fe 1cbd 10f4 283d ebc5 153d 32b2 2dbe
00000060: 30d4 86bd e25e 863d c45c 293e adb4 2fbe
00000070: ba94 04be d3f9 273d e88a a03d 0978 f33d
00000080: 65fe 0abd f44e a2bd 7aa4 563d 3e01 083d
00000090: 7c06 ea3c d41b 3e3e e799 3dbc 842b 1c3d
000000a0: 55c3 773d 9f45 f63d a888 1e3d 4db7 4fbd
000000b0: ade1 c23d 5d5b 1bbe 5753 2f3d 6e78 7f3d
000000c0: 3694 33bd ba23 38bd b32f 863d 7a15 83bd
000000d0: 8182 093e 8b1d cdbd 084f 4abe 8ddb fd3c
000000e0: 0053 18bd 8326 9bbd 38a3 c23d 08f4 123e
000000f0: bdde df3d 6026 abbd 1f01 4a3d c1cc 893c
00000100: 388f 973c 7a34 09bd a147 1bbd cd57 eebd
00000110: 1ad9 10be 4f43 283d a2d6 ce3d 24f2 763d
00000120: 8097 0d3e f0b1 873d 5251 733c 34f7 a53d
00000130: 0458 213d c35c 34bc 5f00 1c3d 79a5 65bd
00000140: 138f 183d fa9d 5dbc d88a 6ebd 4e2c b8bd
00000150: 671c 3ebe c88d 61ba 0958 593d 5167 fa3c
00000160: 3e71 ea3d 5762 87bd fa9e 93bc d539 2f3d
00000170: 378f 583d 63d5 4cbd 43ac da3c 8ff7 1c3e
00000180: 529a febc a13e f53c ea4f 5b3d fb52 473c
00000190: 99dd 11bc 924b 913d 4240 ac3d a594 773c
000001a0: f556 e83d 8660 d4b8 6c76 f93c d938 a4bd
000001b0: d0db 8fbd 2a1c e93d e767 a7bb a3b4 4e3d
000001c0: dfa2 c838 518c fa3c 4f1e 393b 5cb6 27bd
000001d0: 80f1 49bd 866c 1b3d f669 583d daa8 9dbd
000001e0: aaa9 58bd 7cde ef3c 3c03 c83d 2b5f 133d
000001f0: a5a6 173d 83a3 2ebd b228 6fbd ed72 623d
00000200: 84b4 f13c b77a adbd 0dd4 aabc 1cff e3bd
00000210: da67 f33c c718 d1ba ac69 70be 69d6 9e3d
00000220: 2763 6c3d 16ea ccbc a680 1cbd 67a5 0d3e
00000230: 05c7 2bbd 27cd 613d 87de 923d fdff adbd
00000240: 1369 933d eb3a dabd 194b b5bc 72c2 a13d
00000250: 99f8 503c 008e af3c 4132 46bd 0e49 a7bc
00000260: 6d31 1b3e 09b5 49bd b1ea d13c f03c 6d3c
00000270: f781 3ebc 6e5b 9d3c 29df c93c c51f 1bbe
00000280: 689f 75bc db50 0ebe c15f 84bd 89a5 383d
00000290: a888 7abd 84d7 50bd 4ca8 143d ff71 593b
000002a0: e5cb 99bd 547c 06bd 7648 97bd 5851 81bb
000002b0: 0684 cebd 73ec 99bd 957e 4b3a ba06 3f3b
000002c0: 4f2a 0d3e 4c21 103c d89e c23d d441 97bd
000002d0: 78d7 363d 93bb 80bc b30d c13d a37e debd
000002e0: d3c7 4b3d 930c d5bb 8876 26bd 7345 163e
000002f0: 7f20 d9bd 803f 56bd ecd1 41bc 15a1 12be
00000300: 35b2 9fbc 61bc 91bc 8929 1cbe 7541 62bc
00000310: be38 6b3d 17f6 533e 438a b73c 1503 51bd
00000320: 1df9 c2b8 c61d 183e fc92 873b e999 bf3c
00000330: 6154 863d dc9b c2bd 535c ab3c 2f59 0e3e
00000340: cf29 453d 708a d5bd 1aeb eb3b fc44 e8bc
00000350: 3b95 4cbd cd48 9a3d 4b24 353d 21dd 93bc
00000360: edf6 cfbd 49c2 2ebd 5d9a 743d 3a67 34be
00000370: 3517 393d 4c5d 9f3d 4f01 213e 8544 0b3c
00000380: 56ed 733d 91dc 36bd 696f 263e 7af7 eabc
00000390: b390 1b3e daf2 423d 91b2 813d f6c8 ba3c
000003a0: c395 4d3c f036 b2bd 4233 fc3c d766 57bd
000003b0: 104c 883d 4fde 0b3e 1aa4 98bd a071 3fbd
000003c0: d32f 40ba 4b45 353d 8abf 803d 9bbf f73d
000003d0: 5c39 a9bd 22b2 673d f744 533d 209e 85bd
000003e0: 17bb 30be 2790 86bc 5700 603d 9436 c8bd
000003f0: f2bf 78bd a8c1 f33c e56d 87be 720b 85bd
0.07809341 0.005127291 -0.22892624 0.007222342 -0.030043809 0.1113948 0.066791035 0.101719156
0.050609015 -0.014550749 -0.010524643 0.10873187 0.042301457 -0.19885147 -0.02923282 -0.05320674
-0.062862314 0.046040077 0.03728404 0.052091945 -0.038328495 0.04124838 0.036565702 -0.16962507
-0.0658344 0.06561066 0.16539294 -0.17158766 -0.1294736 0.041009735 0.07838994 0.11888129
-0.033934016 -0.07925215 0.05240295 0.03320431 0.028567545 0.18565303 -0.011572338 0.038127437
0.060489018 0.12024998 0.038704544 -0.05071192 0.095157005 -0.15171571 0.04280409 0.06237071
-0.043842517 -0.044955947 0.06552067 -0.06400581 0.1342869 -0.100154005 -0.1975671 0.030988479
-0.03718853 -0.07575705 0.09503788 0.14350903 0.10931156 -0.08356929 0.049317475 0.016821267
0.01850091 -0.03349731 -0.037910108 -0.116378404 -0.14145318 0.041079815 0.10099532 0.060289517
0.13827324 0.06625736 0.014850931 0.08103791 0.03939058 -0.011008444 0.03808629 -0.05606601
0.03724582 -0.013526434 -0.05823788 -0.089928254 -0.18565522 -0.0008604196 0.053062472 0.030566843
0.114473805 -0.06610554 -0.018020142 0.042779762 0.052870955 -0.05000819 0.026693469 0.15328811
-0.031079445 0.02993709 0.05354301 0.01216578 -0.008902931 0.07094492 0.08410694 0.015111123
0.11344711 -0.00010126927 0.030451976 -0.08018655 -0.07024348 0.11382325 -0.0051088217 0.050465237
9.56708e-05 0.030584486 0.0028246825 -0.040945396 -0.049302578 0.037945293 0.052835427 -0.076982215
-0.05289618 0.029280894 0.09766242 0.03597943 0.03702416 -0.042636406 -0.05838842 0.055285383
0.029505022 -0.084706716 -0.020853067 -0.111326426 0.029712606 -0.0015952819 -0.2347781 0.07755739
0.057711747 -0.025013965 -0.038208626 0.13832627 -0.041937847 0.05512729 0.0717135 -0.084960915
0.07197776 -0.10655769 -0.022130536 0.078984156 0.012754583 0.021430016 -0.04838777 -0.020420577
0.15155573 -0.049244914 0.025624605 0.014479861 -0.011627666 0.019208636 0.024642544 -0.15148838
-0.014991619 -0.13898031 -0.06463576 0.04507974 -0.06116548 -0.05098678 0.036293313 0.003317952
-0.07509593 -0.032833412 -0.07386868 -0.0039464645 -0.10083775 -0.07515802 0.00077626976 0.0029148296
0.1378567 0.008797001 0.09502953 -0.073856026 0.04463908 -0.015714442 0.09426441 -0.10863998
0.049751114 -0.006501743 -0.040640384 0.1467493 -0.10601901 -0.052306652 -0.011829834 -0.1431926
-0.019494155 -0.017790021 -0.1525022 -0.0138095515 0.05742716 0.20699345 0.022404796 -0.05102833
-9.297042e-05 0.14855108 0.004137395 0.02338882 0.06559063 -0.09502384 0.020918047 0.13901208
0.048135575 -0.104267955 0.007199657 -0.028353207 -0.049947005 0.07533417 0.044224065 -0.018049778
-0.10154519 -0.042665754 0.059717525 -0.17617503 0.045188148 0.07781467 0.15723155 0.008500223
0.059552513 -0.044643942 0.16253437 -0.02868246 0.15191917 0.047594883 0.06332887 0.022800904
0.012547913 -0.08701885 0.03078616 -0.05258831 0.06655133 0.13659023 -0.07453175 -0.04673922
-0.0007331345 0.044255536 0.06286533 0.12097093 -0.082628936 0.056566365 0.051579442 -0.065243006
-0.17258869 -0.01642616 0.054687824 -0.09776035 -0.06072993 0.029755428 -0.2645103 -0.06496324

fc2.bias f4 [100]
00000000: 3cfb d83c 65e3 d03d 940f 093d 2e6b c23c
00000010: 22ae adbd 05bd 433c 4cb0 9abd 2bac 233d
00000020: 4aac 0dbc 732a f33c a601 a7bc 242d 79bd
00000030: 776c 55bd a770 b3b6 b78d f2bc b02a 17bd
00000040: 5c87 833d 9e83 2d3d 8863 133c 7378 ce3d
00000050: a822 40bd 1ada c23d dbcc 93bd aa22 b9bc
00000060: 84e8 09bd 999c 973c 191a c93d 998b 813c
00000070: 3704 883d eb51 a13d 0729 17bd ba34 143d
00000080: d221 863c 76de a1bd aa09 42bb b3b8 213d
00000090: 052b 563d 0bb7 a83c e8ec 923d 904b ed3b
000000a0: b932 393d 7c22 b63d a09b cb3d 7c7f 95bc
000000b0: d2f2 96bd 82e8 603c 1e87 a0bd 3b05 84bd
000000c0: 5ef3 0e3b 3090 7c3d 29c1 35bc fda8 b3bd
000000d0: 45ee c83d f786 963c 11b3 d43d a0c4 2ebd
000000e0: 196b 723d 5375 65bc e9d8 8abd d297 8c39
000000f0: 709f b43c c5e0 9fbc 4e4b ba3d b501 ad3d
00000100: becf c3bd 9447 a73c fa59 7f3d ef0e 66bd
00000110: 45a1 c7bd 39ee 0e3d 739b 88bc abed 07bd
00000120: 31af 26bd 9655 953d e496 8bbd a53b 303b
00000130: 5346 c6bd 5f20 893d e525 263d 7813 ca3d
00000140: 5d2a 6f3c 8ff9 a2bd a098 a33d c4d3 493d
00000150: 4823 dfbc 6461 a93d f7d8 c9bd 3316 773d
00000160: 6def 9f3c 049e 793d 2a83 80bd 3563 473c
00000170: a72a 30bd e973 43bd 49bb c8bd baa3 c4bd
00000180: 530f 35bd 3b9e b7bc 4b7e 903d 8394 31bb
0.026486985 0.10199622 0.033462122 0.023732748 -0.08480479 0.011946921 -0.07553157 0.039959114
-0.008647034 0.029683327 -0.020386528 -0.060834065 -0.052105393 -5.34773e-06 -0.02960859 -0.036905944
0.06422302 0.042361848 0.008995898 0.100815676 -0.04690805 0.09514256 -0.072168075 -0.022599537
-0.03366901 0.018507289 0.09819431 0.015813636 0.06641429 0.07876953 -0.03690436 0.036183096
0.016373549 -0.07903759 -0.002960781 0.039482784 0.05228712 0.020595094 0.071740925 0.007241674
0.04521439 0.08893296 0.099417925 -0.018249266 -0.07370533 0.013727309 -0.078382716 -0.0644631
0.0021812539 0.061660945 -0.011093416 -0.08772466 0.09811071 0.018374903 0.10385717 -0.042667985
0.059184168 -0.014005023 -0.067796536 0.00026815996 0.022048682 -0.019516358 0.090963945 0.08447591
-0.09561108 0.020419873 0.062341668 -0.056166586 -0.097475566 0.034895156 -0.016675686 -0.033185642
-0.04069442 0.07291715 -0.068158895 0.002689102 -0.09681382 0.066956274 0.040563483 0.098669946
0.014597503 -0.07957756 0.07988095 0.04927422 -0.027238503 0.08270529 -0.09855836 0.060323905
0.019523347 0.06094171 -0.062750176 0.012169649 -0.043009426 -0.047717962 -0.09801347 -0.09601541
-0.044204067 -0.022414317 0.070553385 -0.0027096577

fc3.weight f4 [6, 100]
00000000: 2f4a 6ebe 6025 703c 987f f83d 0df1 c93d
00000010: 6219 793c b550 8e3d b7f4 c83c 3f67 c53d
00000020: 3820 a33d 7081 3cbd cf3e 8cbc 6beb 833d
00000030: e065 cebc 6cea 6cbd 49bf 0a3e b9c3 063e
00000040: c78b c6bd 1a37 0abc c566 08bb 98b6 16bd
00000050: e8d0 b63e a22f cf3c b9b9 6c3b fc39 1fbe
00000060: d5c0 643d 34f1 91bd b557 be3d 8ab0 bdbd
00000070: db35 a6bc a200 943c a4f6 d5be 5588 c43d
00000080: 0dd3 8bbd 8edd 92be c1ca 8a3d 5a0f 83bd
00000090: 11e8 edbb 92f4 4e3d fead a5bd 6f48 c4bd
000000a0: 8852 7e3c ff37 f4bc 8818 993d 9637 2f3d
000000b0: 97fa 5ebd 8d61 39bc 55a1 3c3d 9175 5dbd
000000c0: 59f0 9d3d e126 1d3c 9626 6a3e 8b92 84bd
000000d0: ccd2 cc3c 598e 923d bb4c 18bd 00ad 8bbb
000000e0: 3434 9abd 91db 4e3d 6a98 10bd 065d 61bd
000000f0: c8c6 803d 8fc8 d5bc 291d 13be 2313 c3bd
00000100: 9e96 84bd b159 b13d db35 9dbd db22 833e
00000110: 50ed c0bd 85d9 b4bb 576b af3d 07de a93c
00000120: e2d6 4d3c 6907 c73d a4e0 58bd 1314 ddbc
00000130: 64ad 11bd 2e2e 4cbd cc59 5e3e 41f5 09bd
00000140: 7b86 fdba 09ae 633e 3460 423d d127 4e3d
00000150: 1c4e a13d f019 383d 1306 483d eb74 4d3d
00000160: 40c2 2cbd f6db bf3d 9faf a43d 209b 653d
00000170: 773c 0f3d 12bb 883d 6d23 08be 2fc2 e1bd
00000180: 9a8c a4bb 9142 c0bc e4cf d83d 6735 85bd
00000190: e53f bdbb 16f6 e1bb 5d23 183d 7206 9d3c
000001a0: dddb 483a 7c66 b2bd c562 08bd 360d 983d
000001b0: 5a67 fa3d 4ea7 12bd 3af2 3ebc 95f0 9dbc
000001c0: cd82 aebd f7f4 cc3d e4c3 bcbd 85a0 c8bd
000001d0: 64fa 01bd 147c 0bbd 6b0c 0f3d f646 14bc
000001e0: 3319 9fbd d227 5cbd 74c0 a73d 3826 463e
000001f0: 820c 273e 2d7d 443d e5da c9bc fa1a 583d
00000200: b943 b0bd 68b0 053d 0bf1 5fbe de70 e53d
00000210: 035d 943d 1cd4 83be 09a7 a43c 9944 90bd
00000220: d295 91bd 8be4 32bd a8b5 7c3d a208 e23d
00000230: fb0d a5bc 0381 bebd c132 8e3d d5ce a43c
00000240: 5bec aabd dee7 8cbd c777 8fbd 7206 96bd
00000250: c67c 32be 6554 d83b 2f28 203e fda5 c2bd
00000260: a11d 84bc efc8 b5bd 16ea 083e f30f 013c
00000270: c946 bdbc b95e 5fbd 8f31 fd3b 354b 953d
00000280: 0915 a23d 207f a53d 2cd2 6a3d 45c7 dc3b
00000290: febe 7e3d 4a2b 383c 67de 873b ded5 ffbc
000002a0: f0ea 613c 2254 35be d6e6 bbbc e6eb 873c
000002b0: d326 9cbb ef6d 363d 8af4 883d 28a5 80bd
000002c0: 5d5d d13c b4aa 45bb c41d bc3c 1120 b23d
000002d0: 46d1 c83d 6945 313e 1daa 0cbd cafe d0bd
000002e0: 22af 1dbc 8a91 85bc 431d 9cbd fbee d33c
000002f0: e948 d23d d910 453d e788 1d3d 4d8c 6ebc
00000300: 4742 8cbd e44f 1abc 3260 9ebd 9086 c03d
00000310: 6fc6 50be 2ec4 5a3d 5607 4c3d 1d55 2abd
00000320: 5f60 7b3d e1db f93c 5d89 f83c 923c 323d
00000330: a76c e73d b9aa 853d fe22 05be f9ef 09bd
00000340: fdf8 113e f507 69be 73f9 cf3d ae49 a83d
00000350: bdc3 123d 9bbe 003e 5614 f8bd afa9 063e
00000360: 7a5d 1ebd 5156 f7bd f4c9 853e eed0 353d
00000370: 5e5e eabd 288e 503d ec09 953d 60bf cb3e
00000380: ab38 743e fb04 49bd 6a69 f7bb f9d6 3abe
00000390: 7b64 43bd a898 3c3e cb5d 92bd 98d3 b03d
000003a0: 4d31 46bd 40f4 1cbf 8bf2 98bd 7ecd 96bd
000003b0: 17c4 debc 0a48 63be 34a1 27bd 317c 0abd
000003c0: 151b 9fbc a6c8 2c3d 6f65 90bd 923c c03e
000003d0: f04e 32bd 1b2c 25bc 7ff9 4abe 1cae 05bd
000003e0: f29a 07bf 9290 023d 8071 ac3e 5d5d 8abd
000003f0: 949e 4dbe 0419 8ebd fb5a 0b3e 338f c03d
-0.23270486 0.014657348 0.121337116 0.0986043 0.015203806 0.069489874 0.024530752 0.09638833
0.079651296 -0.04602188 -0.017119793 0.06441387 -0.025195062 -0.05784075 0.13549532 0.131606
-0.09694629 -0.008435989 -0.0020813209 -0.03679523 0.35706258 0.025291268 0.0036121442 -0.15549463
0.05584796 -0.07126084 0.092940725 -0.09262188 -0.020289352 0.018066708 -0.41789734 0.09596316
-0.06827364 -0.28684658 0.067769535 -0.063994125 -0.0072603305 0.05052621 -0.08089827 -0.09584128
0.015522607 -0.029811857 0.07475382 0.04277762 -0.0544382 -0.011314762 0.046052296 -0.0540672
0.07711858 0.009591789 0.22866282 -0.06473263 0.02500286 0.07156057 -0.03718255 -0.0042625666
-0.07529488 0.050502364 -0.035301603 -0.055020355 0.062879145 -0.02609661 -0.14366592 -0.095251344
-0.064740404 0.086596854 -0.07676288 0.2561253 -0.09420264 -0.0055190944 0.08565395 0.020735754
0.012563439 0.0971821 -0.05294861 -0.026987111 -0.03556575 -0.049848728 0.21713942 -0.033681158
-0.0019342446 0.22234358 0.047455028 0.05033094 0.07876226 0.04494661 0.048833918 0.05016033
-0.04217744 0.09368126 0.080413096 0.05605614 0.034969773 0.06676306 -0.13294764 -0.11023366
-0.005021644 -0.023469241 0.10586527 -0.06504326 -0.005775439 -0.006895791 0.0371431 0.019168112
0.0007662157 -0.087109536 -0.03329732 0.07424395 0.12226744 -0.035804085 -0.011654431 -0.019279758
-0.08521042 0.10007661 -0.09217051 -0.09796242 -0.03173293 -0.034053877 0.034923952 -0.0090501215
-0.07768478 -0.053748913 0.081910044 0.19350517 0.16313365 0.04797094 -0.02464051 0.0527601
-0.08606667 0.032638937 -0.21869294 0.11203168 0.07244303 -0.25747764 0.02009918 -0.07044334
-0.07108654 -0.043674987 0.06169668 0.11036803 -0.020148268 -0.09301951 0.06943274 0.020118156
-0.083458625 -0.06880163 -0.070052676 -0.07325448 -0.1743041 0.0066018575 0.15640329 -0.09504316
-0.01612741 -0.08876216 0.13370547 0.007877338 -0.023105042 -0.054533694 0.007726855 0.07289735
0.079141684 0.08080888 0.05732934 0.006737622 0.062193863 0.01124079 0.0041463855 -0.03122991
0.013788924 -0.17707875 -0.02293722 0.016591977 -0.0047653704 0.044538435 0.06687267 -0.06281501
0.025557214 -0.0030161561 0.022963412 0.086975224 0.09805541 0.17311634 -0.03434192 -0.10204847
-0.009624274 -0.01630475 -0.07622769 0.02587079 0.10267813 0.04811177 0.03846064 -0.0145598175
-0.06848579 -0.0094184615 -0.077331915 0.09400666 -0.20388196 0.053409748 0.049811684 -0.041585077
0.061371204 0.030500354 0.030338937 0.043514796 0.11300021 0.065267034 -0.1300163 -0.03367612
0.14255138 -0.22756942 0.101550005 0.08217178 0.0358312 0.1257271 -0.12113254 0.13150667
-0.038663365 -0.120770104 0.2613064 0.044388704 -0.1144378 0.05091682 0.07277283 0.39794445
0.23849742 -0.049077015 -0.007550408 -0.18246068 -0.047703248 0.18417609 -0.07146796 0.08634108
-0.04838686 -0.61310196 -0.074681364 -0.07363413 -0.027193112 -0.2219545 -0.04092522 -0.033809844
-0.019422093 0.04218354 -0.07050597 0.3754621 -0.043532312 -0.010081316 -0.19821738 -0.032636747
-0.529708 0.031876154 0.33680344 -0.06756089 -0.20080024 -0.06938365 0.13608925 0.09402313

fc3.bias f4 [6]
00000000: 9280 afbd 5eba 95bb 99ef 033d 1fe6 773d
00000010: 5133 f638 1200 253d
-0.08569445 -0.004569336 0.03221092 0.060522195 0.000117397525 0.04028327
